Single_Arm/checkpoint_actor.pth (torch_old, 52457 bytes, 6 tensors)

fc1.weight f4 [128, 33]
000000 1f 25 96 bf 6f 58 f3 bf 05 ba 29 bf 90 66 99 3f
       -1.1730078 -1.9011363 -0.6629947 1.1984425
000010 b7 c4 26 3f 82 13 d1 bf 28 d1 ed be dd fa 16 3f
       0.65143913 -1.6334078 -0.46448636 0.58976537
000020 60 72 25 be db 6f e9 bf b9 a8 3c bf b3 81 4c bf
       -0.16156912 -1.823726 -0.7369495 -0.79885405
000030 9e 89 91 bf de 9e 07 c0 71 7d 6e 3f c9 13 c0 be
       -1.1370122 -2.1190715 0.9316016 -0.37515095
000040 ad aa 23 3f 9e 76 0b 3f 4e e5 9a bc 19 13 c3 be
       0.63932306 0.5447787 -0.01890817 -0.38100508
000050 f3 64 f2 3e 6e 1a 62 be d0 b8 ca be 23 01 d2 bf
       0.47342643 -0.22080395 -0.39594126 -1.6406597
000060 6e 36 58 3f 4d 1a 8c bb 3f 55 ae 3f 6c 18 08 3e
       0.84458053 -0.0042755962 1.3619765 0.13290566
000070 01 07 d9 bf ed e8 88 3d da 2a 07 be 72 39 a2 bd
       -1.6955262 0.06685052 -0.1319994 -0.07921113
000080 f6 20 54 c1 1b 18 4b 3f 47 4f 96 3f 25 13 4f bf
       -13.258047 0.7933366 1.1742944 -0.8088859
000090 8b 83 58 3d b5 b0 48 be ce 50 a4 be df 2f 68 3e
       0.052859824 -0.19598658 -0.320929 0.22674511
0000a0 ff 60 04 bf e5 8a 81 3f a8 ae cc 3f af 78 c4 3f
       -0.51710504 1.0120512 1.5990801 1.534933
0000b0 d3 1a a2 3f fa 92 58 bf b5 b8 37 c0 b3 9a 25 bd
       1.2664436 -0.8459927 -2.8706486 -0.040430736
0000c0 2b 31 2e 40 9d af 91 3e 96 5f 2c bd ab b6 01 3e
       2.721751 0.28454295 -0.042083345 0.12667339
0000d0 46 e1 af 3e 5e e1 3b 3f cd 07 ab be d5 e2 55 bf
       0.34351557 0.7339076 -0.3340439 -0.83549243
0000e0 17 c3 b0 bf eb 92 b7 bf 1d 32 bc 3f 4f b1 30 40
       -1.3809537 -1.4341711 1.4702793 2.760822
0000f0 46 6e dc 3f 49 13 90 3f d0 6e e9 3c 88 d0 d5 bf
       1.7221153 1.1255885 0.028495222 -1.6704264
000100 52 2e 8e bd ef 0d 0d 41 43 ff 6f c0 b8 d1 6f 3f
       -0.06942429 8.815902 -3.749955 0.9367938
000110 26 96 4b c0 7e a7 a3 bf d4 6f 58 bf 94 de 99 bf
       -3.1810393 -1.278549 -0.84545636 -1.202105
000120 43 87 7c 3c bd 48 49 3f 1d f2 c2 bf 06 00 7b bf
       0.015413108 0.78626615 -1.5230137 -0.9804691
000130 bd f7 11 c0 e9 ab 07 3f fb e0 03 c0 9f ed dd 3f
       -2.2807457 0.5299669 -2.0606067 1.7338141
000140 ce 8a a6 3f e9 26 4d bf cf 03 5c bf cc 83 95 bf
       1.301111 -0.801375 -0.8594331 -1.1680846
000150 9b be 8c bf 9d 57 d0 3f 52 c7 ad be 25 40 ed 3c
       -1.0995668 1.6276737 -0.33941132 0.02896125
000160 66 db b1 be 15 7c d5 3f e0 56 d7 3f 7d 0e bf be
       -0.347377 1.6678492 1.6823387 -0.3731574
000170 b5 c8 cc be 53 db 70 3f ec b7 f5 bf cc 65 c6 3c
       -0.39996877 0.9408466 -1.9196754 0.024218462
000180 07 75 89 bf 58 5b bb bc 8e a1 ba 40 8c d8 fb be
       -1.0738839 -0.022870705 5.832221 -0.4918865
000190 82 fb 56 40 ff 12 e1 bf 87 68 63 3f 86 b3 07 bf
       3.3591008 -1.7583922 0.8883137 -0.53008306
0001a0 ef 04 70 3f 4a 2f b1 3f 84 ae 90 3f 42 2b 96 3f
       0.9375753 1.3842556 1.1303258 1.1731951
0001b0 97 47 bd 3f 72 61 2e 3f 4a 64 78 3f 3a a7 bc bf
       1.4787472 0.6811744 0.9702803 -1.4738533
0001c0 01 15 21 3f 4e 92 94 3f 53 26 30 3f 1a ba af bf
       0.62922674 1.1607149 0.6880848 -1.3728669
0001d0 06 df 8d 3f 63 b0 f6 bd a4 cd dd 3f 86 b5 0f c0
       1.1083686 -0.12045362 1.7328382 -2.2454543
0001e0 d0 75 d3 bf 5e 43 8f 3f 97 23 0e bf d8 0e 4a 3e
       -1.6520329 1.1192434 -0.55523056 0.19732225
0001f0 c1 77 a0 3f c6 5a 8e 3f 9c da 38 40 16 ae 7b 3f
       1.2536546 1.1121452 2.8883429 0.9831251
000200 dc 4c 94 bd 54 32 3d c0 20 2c 84 bb e7 f7 35 c0
       -0.07241222 -2.9561968 -0.0040335804 -2.8432558
000210 f4 f2 96 3f 22 4b 0f bf c8 57 d5 be 87 bf a0 bf
       1.1792893 -0.5597402 -0.41668534 -1.255845
000220 a8 c4 c9 3f c5 6d a7 be 48 8f 08 bf c0 3b cc 3e
       1.576314 -0.32700935 -0.5334363 0.39889336
000230 89 91 79 bf a2 ad 8d bf b5 3c df be 5f 9c d2 bf
       -0.97487694 -1.1068614 -0.43601003 -1.6453971
000240 b5 66 be bf 55 b8 03 c0 b6 d0 41 3a c8 a9 25 3d
       -1.4875094 -2.0581257 0.0007393466 0.04044512
000250 8f 59 8f 3e 85 b3 bd 3f 17 e4 f7 3f 8f 47 e5 3e
       0.27998015 1.482041 1.9366482 0.44781157
000260 3d 27 12 3f 91 5e 3b 3f 9c 6d b7 be 41 b9 18 c0
       0.5709112 0.7319117 -0.35825813 -2.386307
000270 21 de e5 bf 84 fc 19 be 0c cf ca 3f df 7f 30 3d
       -1.7958413 -0.15037733 1.5844436 0.043090697
000280 b4 6a 42 40 73 11 93 3d e7 86 3b bd ba 08 b4 bd
       3.0377626 0.071810625 -0.04578295 -0.08790727
000290 e1 81 cf 40 2f 06 10 40 ce 8d 5d 3f 0c d3 93 3f
       6.4846044 2.2503774 0.865445 1.1548781
0002a0 60 ae 03 c0 59 6c 5b 3f a5 0e d6 bf b2 9b ea 3e
       -2.057518 0.857122 -1.6723219 0.4582191
0002b0 61 c3 10 bf 04 36 db bf 06 08 80 bf 09 1e 86 3f
       -0.56548125 -1.7125859 -1.0002449 1.0477916
0002c0 0b a1 2e c0 1c fe 63 bf 88 0b 1c c0 99 87 b2 bf
       -2.7285793 -0.89059615 -2.4382038 -1.3947631
0002d0 d2 14 a4 bf bf ba 19 c0 f0 b5 1d bf cb 0e 83 3e
       -1.2818854 -2.402023 -0.6160574 0.25597224
0002e0 7a 9e 80 3f 7f e0 30 40 b6 fa 2f 3f 55 5e 3d 3f
       1.0048363 2.7637022 0.6874193 0.73972064
0002f0 8f ac 65 bf 7f 62 57 be 82 a4 9e bf 00 2c b8 bf
       -0.8971643 -0.21033667 -1.2393954 -1.4388428
000300 f3 cf a7 3f e3 b2 80 bf 94 38 c1 bc 4d d0 99 bf
       1.3110336 -1.0054592 -0.023586549 -1.2016693
000310 fe 38 36 bd 11 de 36 40 47 bf ea 3e 2d e3 41 40
       -0.044487946 2.8573039 0.45849058 3.0294907
000320 10 ac f3 bd 75 78 53 bf a7 f6 fe 3e f8 97 99 bf
       -0.11898053 -0.8260568 0.49797556 -1.1999502
000330 2d 0f 8a 3f 18 ea 31 bf a7 f5 c5 3f 2a 5e 18 40
       1.0785881 -0.69497824 1.5465592 2.3807473
000340 74 8f ac 3e d3 95 9c 3f ea a4 55 bf 90 92 c2 bd
       0.33703196 1.2233223 -0.83454764 -0.09500611
000350 49 04 10 40 a8 ea bb 3e 6f 6c 95 3e 2a 02 f3 be
       2.2502615 0.36702466 0.2918429 -0.4746259
000360 59 e7 1c 3f aa e5 c0 3e 05 33 85 bf cb d6 93 3e
       0.6129051 0.3767522 -1.0406195 0.28874812
000370 2e 5c 6a 3f 69 24 09 3f da 97 9f bd ec 90 57 3f
       0.91546905 0.5357118 -0.07792635 0.8420551
000380 cd 6e db 3f cc 7c 17 40 1a 86 18 3e 48 b3 51 bc
       1.7143189 2.366992 0.14894906 -0.012799092
000390 40 ba 15 c0 ae 84 58 3d 58 31 2f c1 7f 84 e4 3f
       -2.3394928 0.05286091 -10.949547 1.7852935
0003a0 fa 37 5a 3d b9 be c4 40 29 7f 03 bf ab f1 38 be
       0.05327604 6.1482816 -0.51365906 -0.18060939
0003b0 fd 65 b0 bf f8 00 8e 3e cf c1 64 3f a4 f7 d5 be
       -1.3781124 0.27735114 0.8935823 -0.41790497
0003c0 db 11 22 bf 2e de 8d 3e f7 b1 f6 bc 07 26 93 3f
       -0.63308495 0.27708572 -0.030114157 1.149598
0003d0 8e a2 cc 3d ea 1a 9c bf f1 e1 42 c0 eb 20 60 3f
       0.09991942 -1.2195714 -3.0450404 0.8755023
0003e0 3b 47 c9 3e d1 9b 79 3e 50 35 b8 bf 09 90 83 bf
       0.39312157 0.24375845 -1.439127 -1.0278331
0003f0 9b de 06 3f f7 92 c9 3d 68 6a 46 3e 60 22 06 bf
       0.5268342 0.098424844 0.19376528 -0.523962

fc1.bias f4 [128]
000000 31 77 97 bd 20 fd c6 bf 1d 19 5b bf b4 63 34 c0
       -0.07395781 -1.5545998 -0.85585195 -2.8185854
000010 75 26 20 be 15 d0 9e bf 24 8c 1c c0 a8 24 a8 3f
       -0.1563967 -1.2407252 -2.4460535 1.3136187
000020 0e d6 75 bf 78 a5 29 c0 03 9b 2d c0 b4 d6 1e c0
       -0.96029747 -2.6507244 -2.7125862 -2.4818544
000030 a8 c7 b3 c0 4f 69 be be 0a e6 c4 bf 35 8c 3e c0
       -5.618122 -0.3718972 -1.5382702 -2.9773076
000040 05 c9 42 bf 51 ab 0a c0 84 c0 bc 3f a3 84 73 bf
       -0.7608798 -2.1667063 1.4746251 -0.9512426
000050 75 9f 0c 40 e1 3e 13 c0 62 fe 06 c0 9e e3 d1 3f
       2.1972325 -2.3007128 -2.1092763 1.6397588
000060 b9 a5 e0 bf 92 9f 2a c0 db 97 94 bf 8e 12 b1 bf
       -1.7550575 -2.6659894 -1.1608843 -1.3833787
000070 7f 0f 83 3b 62 d6 ba 3f 1b 2b 72 3f 86 67 16 bf
       0.00399965 1.4596674 0.94597024 -0.58751714
000080 f8 32 c2 bf 34 f5 0f c0 0b 83 f2 be 3e 1b 46 c0
       -1.5171804 -2.249341 -0.47365603 -3.0954127
000090 89 ac a7 bf 9f e0 5c c0 5a d5 d6 bf 5a 7e 1b c0
       -1.3099529 -3.4512098 -1.678386 -2.429587
0000a0 16 81 ba 3c 9d c8 fb bf 48 04 36 c0 65 97 ce bf
       0.022766631 -1.9670597 -2.8440113 -1.6139952
0000b0 b9 c1 bf bf a5 f6 f4 bf a8 fa 87 bf 7e 26 19 40
       -1.4980994 -1.913777 -1.0623369 2.3929744
0000c0 16 15 41 c0 9f 22 6f c0 f6 a9 b0 bf 9d 5d 48 c0
       -3.016912 -3.736488 -1.3801868 -3.1307137
0000d0 71 15 2d c0 56 aa 48 c0 0d 0b 8a bf ec 9d 71 3f
       -2.7044337 -3.1353965 -1.0784622 0.94381595
0000e0 35 dd 1a c0 13 a2 38 c0 1a ce 5f 3e fb 7a 45 c0
       -2.4197514 -2.8848922 0.21855965 -3.0856311
0000f0 1b 78 bf 3e 32 c6 07 bf 95 03 d7 3d 76 0c 1a c0
       0.3739632 -0.530368 0.1049873 -2.4070106
000100 44 77 da 3e 30 12 6a bf 7f c6 f1 3e 13 57 59 c0
       0.42669117 -0.91434 0.47221753 -3.3959396
000110 6f 49 32 c0 62 29 9f 3f 4f 99 74 c0 99 35 68 bd
       -2.785732 1.2434504 -3.8218572 -0.05669174
000120 57 bc 2f bf 9d 88 33 c0 db fd 98 3f c8 92 ba bf
       -0.6864676 -2.8052132 1.195247 -1.4576044
000130 0f a6 83 bf 14 7e dc bc 64 70 e4 bf 1c cb 4b c0
       -1.0285052 -0.026915587 -1.7846799 -3.1842718
000140 e0 9c c8 bf 35 5e 17 c0 d2 4c 67 bf 21 c8 4a c0
       -1.5672874 -2.365125 -0.90351593 -3.168465
000150 07 a1 92 bf 67 34 d0 bf 72 88 e8 bf 29 c4 48 c0
       -1.1455392 -1.6265992 -1.816664 -3.1369727
000160 f6 d1 13 c0 46 85 30 bf 19 55 46 bf 55 9e 32 3d
       -2.30969 -0.6895336 -0.774736 0.04360803
000170 0e b7 90 bf 15 60 05 c0 31 8f 2b c0 72 b9 75 c0
       -1.1305864 -2.0839894 -2.6806147 -3.8394437
000180 8c 2f 19 c0 8f 5b a4 bf 14 e0 fb be 56 0d 9e bf
       -2.393527 -1.2840441 -0.49194396 -1.234782
000190 c5 b2 1e c0 e2 7b b3 3f bb 6c 14 be a5 b0 7f bf
       -2.4796612 1.4022181 -0.14494602 -0.99878913
0001a0 6d 02 9e bf 63 2f bd bf 14 cc e8 3f f9 21 b1 bf
       -1.234449 -1.4780086 1.818728 -1.3838493
0001b0 ea 3e 80 bf 07 81 13 c0 8d 66 85 c0 2e 8f 47 c0
       -1.00192 -2.3047502 -4.1687684 -3.118114
0001c0 2f a5 9d bf 71 e9 ee bf 08 3b 71 c0 81 46 d8 bf
       -1.2316035 -1.8664991 -3.769228 -1.6896516
0001d0 01 fd 94 c0 93 77 31 bf 7f ca 49 bf ef fe 2c bf
       -4.6558843 -0.6932308 -0.7882461 -0.675765
0001e0 b3 62 27 c0 8b 35 b2 bf 1a 1b f6 bf 0c 66 cf bf
       -2.6153991 -1.392259 -1.9227021 -1.6203017
0001f0 01 9e 76 c0 00 18 6f 3e 86 c0 29 c0 ba ef a8 3e
       -3.8533938 0.23348999 -2.6523757 0.32995397

fc2.weight f4 [64, 128]
000000 11 39 b6 c0 e3 1a cd 3d eb d2 b6 3f 82 2e 12 c0
       -5.694466 0.10014894 1.4283117 -2.2840886
000010 cf 23 93 3f cb ee 02 bf c7 45 38 c0 f4 f2 72 3f
       1.1495303 -0.5114562 -2.8792589 0.9490197
000020 69 18 9e 3e 41 33 92 bf 44 18 8b bf ba 8a d9 bd
       0.30877998 -1.1421891 -1.086678 -0.10622163
000030 68 b3 10 3f 8c 49 0f 40 6d 2a f5 be 0f 9e e7 3f
       0.5652375 2.238864 -0.4788393 1.8095111
000040 c3 c4 3d 3e d7 c4 ad 3d c0 c0 69 bf 1a 7a 02 40
       0.1853209 0.0848481 -0.9130974 2.0387025
000050 6d 25 f3 3e 63 d5 d0 bf c6 80 43 be 48 d2 52 bf
       0.4748949 -1.631512 -0.19092092 -0.82352114
000060 28 dd 65 be 5a 88 63 bf aa 22 a3 bf 2d f1 4f 3d
       -0.22447646 -0.8887993 -1.2744954 0.050767113
000070 df cd 91 bf cc f1 c1 3e 7d 1f 61 3f 51 75 f9 bf
       -1.1390952 0.3787979 0.8793867 -1.9488927
000080 e7 8a 37 bf 8e b6 e1 be 02 e4 e6 3f fd d3 41 c0
       -0.71696323 -0.4408459 1.8038332 -3.0285637
000090 1a ee 0e c0 d4 85 dc be c3 d8 a1 bf 20 7c a7 3f
       -2.2332826 -0.43070853 -1.2644275 1.3084755
0000a0 0f b0 81 3f d4 10 ea 3e ee cf ec 3f b2 10 1b 3e
       1.0131854 0.45715964 1.8500955 0.15143088
0000b0 75 07 66 be 9e 62 49 c0 20 e3 5a bf 2c e0 67 3f
       -0.22463782 -3.146644 -0.85502815 0.90576434
0000c0 1d 9d b7 3f d1 f1 b2 3f ab c4 9e 3f c2 95 ec 3e
       1.4344822 1.3980047 1.2403768 0.46208006
0000d0 8e ea a4 3e 8c 4a 93 3f fe 1d 4d bd e9 f4 94 3f
       0.322102 1.1507125 -0.05007743 1.1637241
0000e0 90 a3 c5 be c2 dc 1e bf 86 ee 0a c0 77 e8 5b be
       -0.3860135 -0.620556 -2.1708083 -0.21475397
0000f0 e7 be 35 3e 9a d7 8a bf e8 f9 3a bf a0 05 a9 bf
       0.17748605 -1.0847046 -0.73037577 -1.3204842
000100 20 c4 da bf c2 2d c5 bf 45 2c 61 c0 a4 2d 49 be
       -1.7091103 -1.5404589 -3.518327 -0.19646317
000110 7b cd b0 3f 73 5a 90 bf 1b d8 2c 40 fd 51 35 bf
       1.3812708 -1.1277603 2.70069 -0.7082823
000120 92 21 ea 3d 67 0c dd be 29 f4 1b 40 3b b9 13 40
       0.11432184 -0.43173525 2.4367774 2.3081806
000130 d3 6b a2 bf 2d b4 65 c0 57 22 97 be df 1e 02 3f
       -1.2689155 -3.589122 -0.29518387 0.50828356
000140 dd ed de be 24 9e 1d c0 1c f0 ae bf 64 38 06 be
       -0.4354085 -2.4627771 -1.3667026 -0.13107449
000150 11 dd 51 c0 96 e5 a8 3e be 86 f4 be d0 50 27 c0
       -3.2791178 0.3298766 -0.4775905 -2.6143074
000160 04 96 a4 3f 38 78 87 be f1 9c 0b 3f b1 0f 47 3f
       1.2858281 -0.26458907 0.5453635 0.7775832
000170 8f f3 d6 3f 88 1a da 3f 0e 38 d2 3e a7 68 ca 3f
       1.6793078 1.7039347 0.4105839 1.5813187
000180 be ca 74 c0 40 b1 9a bf ef be 02 40 0f a7 7d 3f
       -3.8248744 -1.2085342 2.0429037 0.99083036
000190 84 4b 20 40 65 2f 00 c0 0a d0 d5 bd d2 be 98 c0
       2.504609 -2.0028927 -0.10440071 -4.7732935
0001a0 84 56 79 bf 27 6d 82 3f 5f eb 1d 40 00 13 0d 3d
       -0.9739764 1.0189561 2.467491 0.034441948
0001b0 1e ef b1 be 5e da 09 3d dd 4a bc 3e 32 27 6a 3f
       -0.34752744 0.033655517 0.36775866 0.9146606
0001c0 9f 6c 31 40 15 33 0f c0 cf a0 ef bf 35 66 98 3f
       2.7722547 -2.2374928 -1.872095 1.1906191
0001d0 a3 3a d1 3d ec ef 0c c0 ed 0b 42 3f 28 5e c0 bf
       0.10216262 -2.2021437 0.7579945 -1.5028734
0001e0 8a f6 1b bf 01 8b e9 bd dd 4d 10 3f 98 12 90 bd
       -0.60923064 -0.11403466 0.5636881 -0.070347965
0001f0 10 ee d5 be eb ed 29 40 49 65 d8 be 3f e7 0b bf
       -0.4178319 2.6551464 -0.42264774 -0.5464973
000200 ed 78 25 c0 bb cf 5b bf 48 98 8b 40 eb 25 13 40
       -2.5855057 -0.85863847 4.362339 2.2991893
000210 bc a3 02 3e de 2d 22 3f 72 2e e9 bf 71 94 aa be
       0.12757772 0.6335124 -1.8217299 -0.33316377
000220 27 d9 08 c0 4e 25 92 c0 ac 70 0f c0 2e 79 28 bf
       -2.138254 -4.567054 -2.241252 -0.65809906
000230 94 04 1f bf 6c 69 b9 3f 70 21 23 bf a7 d7 3b 40
       -0.6211636 1.4485297 -0.63722897 2.9350374
000240 88 e8 54 3e 53 a9 19 c0 14 32 cf 3e bd f4 0f 40
       0.20791829 -2.4009597 0.40467894 2.2493126
000250 a3 d9 2b c0 ae 5e a0 3f 5d d0 57 3f 52 bf 90 3f
       -2.6851585 1.2528894 0.8430231 1.1308386
000260 e9 96 95 bf 8b ee 3b bd 2d 09 00 40 10 c3 bc 3f
       -1.1686679 -0.04588179 2.00056 1.4747028
000270 fd 52 49 be 6b ae c4 3f 4d 81 db 3e 31 90 a0 be
       -0.19660564 1.5365728 0.42872086 -0.3136001
000280 a4 ec 36 c0 9b 5b 23 3f f3 47 26 bf 63 bb a0 3f
       -2.8581934 0.63811654 -0.64953536 1.2557186
000290 66 8f a4 bf 8e 8c fd 3f 28 2b fc bf ea c7 0b 40
       -1.2856262 1.9808519 -1.970067 2.1840768
0002a0 ff ff 47 3f 40 b5 b6 3f eb a4 c6 3d f4 af 12 bf
       0.78124994 1.4274063 0.09699424 -0.57299733
0002b0 92 53 91 be ff 20 d3 bf 7b 52 ad 3f d8 23 55 c0
       -0.28384072 -1.6494445 1.3540796 -3.3303127
0002c0 12 b8 33 3f 9a 95 fe 3e f3 eb ec 3e 2b 36 c9 bf
       0.70202744 0.49723512 0.46273765 -1.5719656
0002d0 e6 da ca 3e 41 87 cf bf 27 a9 d5 bf 79 b0 06 bf
       0.3962013 -1.6213151 -1.6692246 -0.52613026
0002e0 70 33 c4 3f 92 93 1f bf e7 49 09 bf 50 26 5f bf
       1.5328197 -0.6233455 -0.5362839 -0.87167835
0002f0 63 5f 2f c0 49 66 12 3f 46 32 4c c0 98 66 a6 bf
       -2.740197 0.57187325 -3.1905684 -1.3000059
000300 45 e7 8c be 78 8b 7b be 17 87 8b 3d 7e 3f 2c 3f
       -0.27520195 -0.24564922 0.06812876 0.6728438
000310 c0 fc 89 3f 20 1c 2a 3f db 12 db 3f 1a 29 a9 c0
       1.0780258 0.66449165 1.7115129 -5.2862673
000320 ad 2c 89 bf fc da fa 3f 16 55 bd 3f 2d 87 37 3f
       -1.0716759 1.9598079 1.4791591 0.71690637
000330 c5 6d 63 bf dd 26 25 be 22 db 74 40 1a ce 13 c0
       -0.8883937 -0.16128106 3.8258748 -2.3094544
000340 d6 6e f1 3e 80 3c 5b bf d1 12 4f 3f e6 6e 99 bf
       0.47154874 -0.8563919 0.80888087 -1.1986969
000350 d5 c3 ff bf 1c 29 39 c0 15 cb 26 3f 99 60 d9 be
       -1.9981638 -2.893134 0.6515363 -0.4245651
000360 fb 77 0d 40 7f 47 f3 bf bf 15 8c 3f ec 52 b5 3f
       2.210448 -1.9006194 1.0944136 1.4165931
000370 83 c9 d4 bf 83 fb 15 bf a6 75 b6 be ba eb 01 3f
       -1.6623996 -0.585869 -0.35636634 0.50750315
000380 ee 35 e8 3e 3c 05 4c c0 7f 31 ca 3e fa 81 60 3f
       0.45353645 -3.1878195 0.39490888 0.8769833
000390 3c 85 cb bf 99 c6 50 c0 b1 65 c7 3f 3e 88 05 c0
       -1.5900035 -3.2621214 1.5577909 -2.0864406
0003a0 f9 d5 47 bf 37 a5 da 3e 74 0e b9 bf e6 1f 1f 3e
       -0.7806087 0.42704174 -1.4457536 0.15539512
0003b0 dc 7c 07 c0 b6 28 5b 40 9b eb ca 3e eb 49 69 3f
       -2.1169958 3.4243598 0.39632878 0.91128415
0003c0 8a 30 94 3f 0b f5 fe bf ca 0a b4 be 89 83 aa 3f
       1.1577313 -1.9918531 -0.3516448 1.3321391
0003d0 04 a0 7b bf 4b c4 45 be ca 28 b3 bf 26 4e fe bf
       -0.9829104 -0.19313161 -1.3996823 -1.9867599
0003e0 88 c0 97 3f 94 6c 3b bf 6b 0f 95 3f 50 04 e6 3e
       1.1855631 -0.7321255 1.164533 0.44925165
0003f0 6b d6 1b 3f c3 da a6 bf 58 f5 2e 40 b9 89 0e c0
       0.6087405 -1.3035511 2.7337246 -2.227156

fc2.bias f4 [64]
000000 ac 04 b8 3e b9 95 c6 bf 8e d8 29 3f fe a0 6e c0
       0.35941064 -1.5514442 0.6634606 -3.7285762
000010 fb ae 5c bf f1 64 e2 be 8f 83 06 c0 b6 e4 14 c0
       -0.862045 -0.44217637 -2.1017797 -2.3264594
000020 33 27 85 3e 27 4d c5 be 3a b8 a3 bf e3 89 8d be
       0.2600647 -0.38535425 -1.2790596 -0.27644262
000030 f9 fe 0d c0 61 65 8d c0 55 fd 8a bf 8e ad 10 be
       -2.2186873 -4.4186254 -1.0858561 -0.14128706
000040 60 7c 92 bf 5b c8 3e 3f 67 00 31 3f 5c 4d 92 3f
       -1.1444206 0.7452447 0.6914124 1.1429858
000050 73 9f 97 bf 4c 73 b9 3f 94 43 da bf 7a 89 f0 3e
       -1.1845535 1.4488311 -1.7051873 0.46979886
000060 43 b3 1d c0 d8 42 1a 3f 63 ee 12 3f fc dd 0b c0
       -2.4640663 0.60258245 0.57395 -2.1854239
000070 2d 74 c1 3f 4f 0a 64 3e 8a 39 03 c0 cb c5 fe bf
       1.5113579 0.22269557 -2.050387 -1.9904112
000080 47 a5 12 40 1e ec d2 c0 fd 8e 56 be 89 95 ef be
       2.2913377 -6.591323 -0.20952983 -0.46793774
000090 e2 ea 93 3f fe b4 02 bf d3 71 4b be 54 32 93 bf
       1.1556056 -0.5105742 -0.19867639 -1.1499734
0000a0 26 d3 eb bf 9a 61 27 40 72 6a ec bd f4 65 e9 3e
       -1.8423812 2.6153321 -0.1154374 0.45585597
0000b0 1b 39 d6 3f 86 79 cc 3f 72 ff 14 c0 4e 0c 98 be
       1.6736177 1.5974586 -2.3280911 -0.29696888
0000c0 f9 77 5d bf 3a 3f be 3f 96 3b 34 3f e9 3c 25 bc
       -0.8651119 1.4863045 0.7040342 -0.010085323
0000d0 73 06 9a 3d b2 54 7f 3f 99 2d 21 3f 7f e4 4e 3e
       0.07520761 0.9973861 0.629602 0.20204352
0000e0 81 5d 74 c0 3f c5 23 be 59 23 c0 bf 27 9f a2 be
       -3.818207 -0.15993212 -1.5010787 -0.3176205
0000f0 6f 3e 8f bf f8 6a a1 be 56 ae 82 3f fe 77 b5 bf
       -1.1190928 -0.31526923 1.0209453 -1.4177244

fc3.weight f4 [4, 64]
000000 4b 84 71 c0 8f 0c d9 bf 30 aa df 3d d3 e4 ea 3f
       -3.7736995 -1.6956958 0.109211326 1.8351082
000010 bb c9 c7 3f 1e 6e 22 40 e6 0a 90 bf 73 09 40 40
       1.5608438 2.537971 -1.1253326 3.0005767
000020 5c 07 06 40 82 fb bd 3f 0b 6e 1b 3f f7 48 03 bf
       2.0941992 1.4842379 0.6071479 -0.5128321
000030 86 4f 27 40 73 1b 7c 3f 9d 39 3c 40 99 2e 5f 3d
       2.6142287 0.98479384 2.9410164 0.0544878
000040 03 71 5f 3f 42 a6 06 3e 55 70 59 3e 08 c9 77 3f
       0.8728182 0.1314936 0.21234258 0.96791124
000050 c9 70 bc bf b0 c0 09 3e dd 34 9c be 98 d3 07 40
       -1.4721919 0.1345241 -0.3050908 2.1222897
000060 fc 3f 45 40 34 52 f1 bf 7c 58 fd bf 72 3d 31 40
       3.0820303 -1.8853211 -1.9792628 2.7693753
000070 67 3f b8 be 64 c8 cf 3f 1f 0a 92 bf 07 ca be 3f
       -0.35985872 1.6233029 -1.1409339 1.4905404
000080 d2 04 7e bf 26 5e 0e 3f aa 08 5b 3f df a3 1b bf
       -0.99226105 0.5561241 0.85560095 -0.6079692
000090 13 b7 dd be 3a e7 0b c0 65 0a 2e bd 79 e1 26 bf
       -0.43303737 -2.185988 -0.04249038 -0.65187794
0000a0 77 21 e0 bf 9b 41 06 40 4b 5e 2a 3f 84 b5 f6 3c
       -1.7510213 2.0977542 0.6655013 0.03011585
0000b0 34 c5 1b c0 c4 57 e3 be 8b 45 17 c0 3c 51 c1 bb
       -2.4339113 -0.44402897 -2.3636196 -0.0058995765
0000c0 11 93 04 c0 eb a6 73 3f e8 78 f8 bf 25 07 c8 3f
       -2.0714762 0.9517657 -1.9411898 1.562718
0000d0 36 db 97 3f cd 10 46 bf 75 09 8c 3f a8 90 5f 3f
       1.1863773 -0.77369386 1.0940386 0.873301
0000e0 11 9b 33 40 c4 36 87 3f f5 c5 0d bf 68 1b d2 be
       2.8063395 1.0563588 -0.55380183 -0.41036534
0000f0 15 a1 c4 3f 79 90 88 40 3c 70 26 c0 64 c5 60 3f
       1.5361658 4.267636 -2.6006002 0.87801194
000100 0f 18 35 3f 91 a4 8f 3f 30 5e 03 40 f4 9d 2d 3f
       0.70739836 1.1222097 2.0526237 0.6781914
000110 71 12 8f 3c 6b b9 39 c0 b5 ad ab bf 67 a4 42 be
       0.017464848 -2.901942 -1.3412386 -0.19008027
000120 10 56 04 c0 f0 6d d6 3e 48 ef a0 40 2a df ff 3f
       -2.0677528 0.4188075 5.029209 1.9989979
000130 2d a0 9e be 98 29 6e c0 fb cb 89 be 56 f7 11 bd
       -0.3098158 -3.7212887 -0.26913437 -0.03563627
000140 41 60 71 3f 00 24 63 3f e2 6f dc bf 22 fa ba 3d
       0.94287497 0.88726807 -1.7221644 0.0912974
000150 2c 7b a9 be 25 15 32 c0 b4 7d 19 bf ff 0f 8f bc
       -0.33101785 -2.7825406 -0.5995743 -0.017463682
000160 43 62 16 40 96 82 c6 bf 73 b5 8e bf db 4f ec bf
       2.3497474 -1.5508602 -1.1149124 -1.846187
000170 f4 39 c5 3e cc 19 f6 be d6 4d e4 3f 13 e2 7d c0
       0.38520777 -0.48066556 1.7836254 -3.9669235
000180 63 94 07 bf e4 e8 96 40 b9 b8 26 bf e2 15 1d 3e
       -0.52960795 4.715929 -0.65125614 0.15340379
000190 e3 44 6c 40 3e 4b 18 40 d2 6f 12 3d 29 9b 05 bf
       3.6917045 2.3795924 0.03575117 -0.5218988
0001a0 a3 b1 03 40 35 18 02 3f 7a 2e 0d bf d4 43 dc 3d
       2.057717 0.50818187 -0.5514904 0.10755125
0001b0 35 67 cf bf 31 7a f0 be df c0 63 3f ce 02 96 bd
       -1.6203371 -0.46968225 0.8896617 -0.07324754
0001c0 93 e5 c8 3f c7 b1 c8 3f f3 22 31 c0 93 44 07 40
       1.569506 1.5679253 -2.7677581 2.1135604
0001d0 37 5f 3e be de d1 58 3d 18 2d 93 be 2e 3e 60 40
       -0.18591009 0.05293452 -0.2874534 3.5037951
0001e0 24 07 72 be 40 18 b3 3f e2 2b df 3f 1c 52 54 3f
       -0.23635536 1.3991776 1.7435267 0.8293779
0001f0 4a f1 24 be 5e 98 0f 40 7b c3 1d 3f ac e1 7d bf
       -0.1610767 2.2436748 0.61626405 -0.9917247
000200 98 12 be 3f b8 db 80 c0 d8 cb be bf 0d 82 25 40
       1.4849424 -4.026821 -1.4905958 2.5860627
000210 9d a3 54 3f fe 3d 14 40 08 7b 70 40 a2 b4 55 bf
       0.83062154 2.3162837 3.7575092 -0.8347875
000220 8e 13 07 bf 75 f8 1b 40 b2 73 f3 3e 7b 7a dd 3f
       -0.52764213 2.4370396 0.47549206 1.7303003
000230 15 f8 1c 40 2d 17 5c 3f 3f 55 8d bf 9c a6 a1 bb
       2.4526417 0.85972863 -1.104164 -0.0049331915
000240 d2 cc 0f c0 d1 0e 22 c0 2b 26 81 40 d4 9d 63 be
       -2.2468762 -2.5321543 4.035909 -0.22228175
000250 88 d4 cf 3f 14 aa 76 bf 01 85 e4 bd 9c 14 b2 3f
       1.6236734 -0.9635327 -0.11158181 1.391254
000260 fa a5 63 c0 36 52 a5 bf ab 71 17 bf 28 d3 01 bf
       -3.5570054 -1.2915714 -0.5915782 -0.50712824
000270 f8 df 0f c0 b7 9c ae bf 86 98 51 c0 47 46 04 3e
       -2.248045 -1.3641576 -3.2749343 0.12917434
000280 97 a7 73 40 27 92 91 3e cb ff 45 40 d5 4d 80 3f
       3.8071039 0.28431818 3.0937374 1.0023752
000290 d9 75 01 c0 50 d5 04 3f 75 1f ee bd c5 ba 13 40
       -2.0228179 0.5188799 -0.11627094 2.3082745
0002a0 4c ce 9d 3e bf e6 3e bf 10 fa a0 3f 8c 3a 34 3f
       0.30821455 -0.7457084 1.2576313 0.70401835
0002b0 a4 1a 90 bf 64 76 03 c0 a0 d5 7d bf 13 68 87 3f
       -1.125813 -2.054101 -0.9915409 1.0578636
0002c0 f6 3d 61 3f 5d bd 14 c0 a1 cd 63 3f d7 00 a9 3f
       0.8798517 -2.3240578 0.8898564 1.3203381
0002d0 e1 e5 98 bf 92 3f ef 3f 7b 83 9e bf 01 40 77 3f
       -1.1945153 1.8691275 -1.2383875 0.9658204
0002e0 6f fd 95 c0 47 93 d3 be 26 f5 32 bf 1f 3f 00 3f
       -4.6871867 -0.413233 -0.69905317 0.50096315
0002f0 06 3e 38 3f 07 05 1f 3f 32 4a cb bf 1f fa 61 40
       0.7196964 0.62117046 -1.5882018 3.5308912
000300 16 21 cd 3f b0 84 a2 be af d0 84 bf 3d 40 fb be
       1.6025722 -0.31741858 -1.0376185 -0.49072447
000310 30 e6 04 40 55 9f 80 be 98 5c a5 3f 44 dd e0 bf
       2.0765495 -0.2512156 1.2918882 -1.7567525
000320 02 a6 89 bf d5 ae 2e 40 f0 78 49 3f 31 0c 27 bf
       -1.0753787 2.729421 0.7870016 -0.6525298
000330 26 87 92 c0 ef de 5a c0 a4 2c c2 3f bf 34 be bd
       -4.5789976 -3.4198568 1.5169873 -0.09287404
000340 ac 06 93 bf cf 75 78 c0 41 42 c0 be e1 25 80 40
       -1.1486411 -3.8821905 -0.37550548 4.004624
000350 3b 49 af bf c1 7a ef 3f e9 07 71 bf bb 00 81 3e
       -1.3694223 1.8709337 -0.94152695 0.2519587
000360 b4 1c 89 3f 7a 5d 1a c0 a3 7d e1 3e dc 33 ef bf
       1.0711884 -2.4119554 0.44041166 -1.8687701
000370 01 34 55 40 86 eb 8e c0 22 35 da 3f 66 f4 78 c0
       3.331299 -4.4662504 1.7047465 -3.889917
000380 c6 66 50 3e 68 08 d7 bf 88 55 c2 3e b8 a3 02 bf
       0.20351705 -1.679944 0.3795588 -0.51031065
000390 60 f6 de be 72 c7 39 3f 4f 6f 88 be 29 f7 a6 bd
       -0.43547344 0.72569954 -0.26647422 -0.08152611
0003a0 7b eb 0a 40 d6 b0 c3 3f 07 73 3c c0 c9 cc 5b 40
       2.1706226 1.5288341 -2.9445207 3.434374
0003b0 a5 6a e9 bf 2b e4 94 bf aa 5a 9f c0 9b a4 33 3f
       -1.823567 -1.1632131 -4.9798174 0.70173043
0003c0 90 19 3e c0 9a 3b 8a bf 52 da 78 bf 13 c0 02 3e
       -2.9703102 -1.0799439 -0.9720813 0.12768583
0003d0 87 55 cc 3e 83 bb a8 bf 3f b3 d9 bf 82 7c 6c bf
       0.39909002 -1.3182224 -1.7007827 -0.92377484
0003e0 96 ba 4b 40 d2 c3 81 40 2e 2e 48 40 6a 15 ef 3c
       3.1832633 4.055154 3.1278186 0.029185016
0003f0 1b 26 5a 3f e2 f5 8c 3f 74 35 48 c0 18 0e 81 be
       0.85214394 1.1012537 -3.1282625 -0.25206065

fc3.bias f4 [4]
000000 02 56 8c bf 0f 08 50 bf 3f a6 87 bf 60 01 36 3e
       -1.0963748 -0.81262296 -1.0597609 0.17773962
