Single_Arm/checkpoint_critic.pth (torch_old, 52700 bytes, 5 tensors)

fc1.weight f4 [128, 33]
000000 be 98 16 3f 63 ab 1f 3e 1d 3e 01 3e b7 0b 8f be
       0.58826816 0.15592723 0.1262135 -0.27938625
000010 73 a5 1d 3d 91 08 56 3f 0f ce 35 bf 87 40 8c 3c
       0.038487863 0.8360682 -0.71017545 0.017120613
000020 60 30 52 bf 33 0a 20 3f 91 7a 4f bf 84 66 82 3e
       -0.82105064 0.6251556 -0.81046396 0.25468838
000030 c3 aa b6 bb a2 5d f2 bd 89 0c f6 be 9b 41 bd be
       -0.0055745556 -0.11834265 -0.4805644 -0.36964116
000040 e2 a6 2d 3f 12 35 9e bd 0d ec 43 be 67 dd 92 bd
       0.6783277 -0.07724966 -0.19133015 -0.071711354
000050 a1 1c ff 3c 6c 62 06 3e bf 47 09 be dd f4 37 be
       0.031141581 0.13123482 -0.13406275 -0.17964502
000060 3e 2b a0 be 82 88 43 be 2e c1 83 3f 90 be 95 40
       -0.3128299 -0.19095042 1.0293329 4.679512
000070 e6 10 25 bf 68 57 20 bd dc a0 97 c0 41 3e 9a 3d
       -0.6447891 -0.039145857 -4.738386 0.07531405
000080 3c d4 22 c0 ae 2e e6 3d d0 30 53 3f 45 c3 71 bf
       -2.5442038 0.11239372 0.82496357 -0.9443858
000090 77 28 98 bd 3b f0 c5 be 16 b4 40 bf 47 30 e7 bc
       -0.07429593 -0.38659844 -0.7527479 -0.028221263
0000a0 5e b5 8f 3d d3 81 e6 3e e6 af 92 bf b7 f0 17 3e
       0.07017015 0.45020923 -1.145993 0.14837919
0000b0 45 03 01 bc cd d8 07 be cf 71 65 bf 46 b3 99 bd
       -0.007874315 -0.13266297 -0.89626783 -0.07504897
0000c0 bd ea 0a 3f 3b 8d 6f be fd ab 96 3d 2b f5 99 3e
       0.5426443 -0.23393719 0.07357023 0.3006986
0000d0 27 c7 61 3e 33 5e eb bd 90 ca a3 3e 0f 37 2b 3e
       0.22048627 -0.114925765 0.3199048 0.16720222
0000e0 a9 4d db be 04 b6 28 be 3b 33 a7 bc 96 a7 c0 3f
       -0.42832687 -0.16475683 -0.02041017 1.5051143
0000f0 47 fa 70 40 05 f1 89 bf e0 ce 18 bb bf a0 6f c0
       3.7652757 -1.0776678 -0.0023316666 -3.7441862
000100 6a e3 79 3d 81 cf db c0 e2 18 99 be 1a 7b 76 3d
       0.061007895 -6.86908 -0.29901797 0.060175993
000110 fe 31 62 bf dc 78 15 3e c3 6e 08 3e dc 41 f1 bb
       -0.8835753 0.14596885 0.13323502 -0.0073625874
000120 c1 dc cc bd 67 37 5f 3e b5 c4 90 3f f1 58 a2 3e
       -0.10003043 0.21798478 1.131003 0.31708482
000130 59 f0 d3 3e 75 34 28 bd f0 40 6b be 6c a6 ae 3f
       0.41394308 -0.041065652 -0.2297399 1.3644538
000140 fe 5a 99 3d 6c 8f 2f 3f e5 86 33 be 48 31 6b be
       0.074880585 0.6857822 -0.17531927 -0.22968018
000150 5e 97 d8 be c9 5e 31 3e dd e0 4e bd f7 02 ad bd
       -0.42302984 0.17321314 -0.050507415 -0.08447831
000160 8c 1d 32 bd 33 0a 77 3f 60 d4 57 3e 49 dd a2 3e
       -0.04348521 0.9649994 0.21077108 0.31809452
000170 8b 88 14 bf b8 01 14 40 b5 a9 50 bf 09 8e 53 bd
       -0.5802085 2.312605 -0.8150895 -0.051649127
000180 32 1a 09 c0 95 0b 0a bd 3a 34 91 40 b0 cb 8c bf
       -2.1422238 -0.03370245 4.5376253 -1.099966
000190 a0 98 c2 bc a0 f3 4f bf 17 02 8d 3d fe 4f db 3d
       -0.023754418 -0.8123112 0.06885164 0.10708617
0001a0 d3 1c 11 bf f8 f1 25 bf 23 93 db bc e8 3d bc 3e
       -0.5668461 -0.6482234 -0.026803559 0.3676598
0001b0 06 f4 9d 3e d0 cd ad be 25 9e 48 3e e5 9d 1c be
       0.30850238 -0.33946085 0.19591577 -0.15294607
0001c0 5a f0 c7 3f 52 fe 45 bb 1d 7a 00 bd 75 d1 51 3d
       1.5620224 -0.0030211401 -0.031366456 0.051225144
0001d0 18 00 e3 3d 36 07 f8 3d f1 42 58 3d ce d3 6c be
       0.11084002 0.121107504 0.052798215 -0.23127672
0001e0 a2 94 8e 3e 71 9a c5 3d e1 16 f7 3e 94 61 06 3e
       0.27847773 0.09648598 0.48259643 0.1312316
0001f0 bb aa 54 be 5a 73 21 3e ce 05 62 40 a0 61 26 3f
       -0.20768254 0.1576666 3.5316043 0.64992714
000200 a1 2b 5f bd 3e cd 64 c0 ec 6d 1c bd 21 1e 19 c0
       -0.054484967 -3.575027 -0.038190767 -2.392464
000210 5c 1c 50 3f 52 63 a5 3e b7 9d 24 bf b1 7d b9 be
       0.8129327 0.32302338 -0.64303154 -0.36228707
000220 c4 fe c7 3e 16 7b af 3e 46 6a 83 be d1 79 15 be
       0.39061558 0.34273595 -0.25667018 -0.1459725
000230 5b 78 0a ba f9 89 2a 3f 70 09 5d bc d5 fb 18 3e
       -0.00052822166 0.6661678 -0.01349102 0.14939816
000240 64 25 ee bd aa 78 72 bf da ee f1 be 6d c4 1d be
       -0.116282254 -0.9471537 -0.47252542 -0.15406962
000250 08 e7 b7 be 4a e0 16 bd 97 37 80 be 3a 8e d5 bd
       -0.3591845 -0.036834992 -0.25042412 -0.10427518
000260 f9 71 8c 3c 09 c1 3f 3c dd 38 a1 bd 1a a7 c0 be
       0.01714419 0.011703738 -0.07872174 -0.37627488
000270 51 b3 e4 3b 09 70 9e be b5 2e 2f 3f 60 47 84 40
       0.006979384 -0.3094485 0.68430644 4.133713
000280 05 5b 5e bf be 8f 42 3d 36 b7 87 c0 80 70 cc 3b
       -0.86857635 0.047500364 -4.2411146 0.006238997
000290 1b 1f f2 c0 f5 55 b3 3e 00 c7 78 bf 3c d5 53 3f
       -7.566297 0.35026518 -0.9717865 0.82747245
0002a0 ac 0b 6d be ee 6c c1 3e 9b cf 22 3d b0 1b 43 3d
       -0.23148984 0.3777842 0.03974877 0.047633827
0002b0 b7 37 57 bd 7e 21 43 3f 5f 72 93 be fb 19 8e be
       -0.05254337 0.7622298 -0.28798196 -0.27754197
0002c0 e3 c1 e1 be 8f d7 cb 3e 76 dd 99 be 7b 8f e4 3e
       -0.44093236 0.39812896 -0.30051774 0.44640717
0002d0 f3 35 29 bf 3e 80 d2 3d 2e f0 45 be 49 83 3a 3e
       -0.66097945 0.102783665 -0.19329903 0.18214144
0002e0 e0 fa 8a 3e 66 96 11 3d a3 37 08 3e 8c 70 6a bd
       0.27144527 0.03554382 0.13302474 -0.05723624
0002f0 68 bc 46 3e a3 37 fd 3e 42 39 ac 3d 6a 01 c4 3d
       0.19407809 0.4945651 0.084093586 0.09570582
000300 0d 54 e2 3e db 16 0b 3f b2 1b 43 3d 6b 7c d2 be
       0.4420475 0.5433175 0.047633834 -0.41110548
000310 dc 16 74 bd 61 e8 e6 bf b9 26 9b bf 59 fb b7 3f
       -0.059592113 -1.8039666 -1.2121192 1.437358
000320 67 b8 a5 3e 13 ea 20 be 7f 7c b5 3e 20 26 68 be
       0.3236725 -0.15714292 0.35446545 -0.22670794
000330 f3 da b0 be bf bf b2 3e 58 35 f6 bf f4 be ed 3f
       -0.34542045 0.34911916 -1.9235029 1.8573899
000340 95 26 d9 be da fd 2a 3d bb cb e4 3d 34 a9 1c 3f
       -0.42412248 0.041745998 0.11171671 0.61195683
000350 d1 53 51 bf e5 17 5b 3e 85 72 1f 3f d0 3e 3f 3e
       -0.8176852 0.21395834 0.6228412 0.18676305
000360 4d 5e e5 3e 42 2c 8c 3e 14 75 67 be f9 15 2c bd
       0.44798508 0.27377516 -0.22603256 -0.042013142
000370 00 c8 a7 3e d7 76 f8 3e 0b c1 e6 3d 27 20 50 3e
       0.32769775 0.48528168 0.11267289 0.20324765
000380 97 5a ad be da be fe 3f 02 6a 97 bf 4c 70 f4 bc
       -0.33858177 1.9901993 -1.1829226 -0.029838704
000390 cc 1a f2 bf 20 c9 89 bd 6c ae 8d 40 57 b4 94 3f
       -1.8914428 -0.06727815 4.4275417 1.1617535
0003a0 d2 28 8e be d5 f9 c9 3e f3 28 e8 bd 10 62 28 3e
       -0.27765518 0.3944842 -0.113359354 0.16443658
0003b0 85 92 1a 3e 3b 21 9c 3e ab fe 33 3d 71 cf be be
       0.15094955 0.30494103 0.043944042 -0.3726764
0003c0 03 61 3f bf 89 08 10 3f 34 d1 11 be d7 17 41 be
       -0.74757403 0.56263024 -0.14239961 -0.1885675
0003d0 81 da b8 bf 48 64 d6 3e 75 66 39 bf c9 39 21 3d
       -1.4441682 0.41873384 -0.7242196 0.03936175
0003e0 a2 ce e7 bb d0 35 89 bd 0c e2 b2 bd 37 19 f1 3c
       -0.007074193 -0.06699717 -0.08734521 0.029430969
0003f0 22 0f 3c be 63 a1 f3 3d 9e 48 4a bf 9f 06 07 3d
       -0.18365148 0.118960164 -0.79017055 0.0329653

fc1.bias f4 [128]
000000 81 ca 92 c0 2a 85 65 c0 bc 16 04 c0 84 99 5b c0
       -4.5872197 -3.5862527 -2.0638876 -3.4312449
000010 e8 38 89 c0 a8 47 b7 be 16 0d 02 c0 b5 93 a4 bf
       -4.2881966 -0.35796857 -2.0320487 -1.2857577
000020 79 39 33 c0 97 5d ff bf 28 ff 90 be 78 78 f4 bf
       -2.8003829 -1.9950436 -0.2831967 -1.9099264
000030 74 05 84 bf f1 4f 53 bf d0 13 87 c0 f5 c5 b6 bf
       -1.0314164 -0.82543856 -4.2211685 -1.4279162
000040 f7 c9 28 c0 ba 8e d3 bf 7c e3 28 c0 0e 6c 0c c0
       -2.637327 -1.6527932 -2.6388845 -2.1940951
000050 48 b7 0d c0 bb 31 fd bf 63 c3 09 3f 3e 85 d3 bf
       -2.2143116 -1.9780802 0.5381376 -1.6525037
000060 69 8d 0d be dd f3 00 c0 89 4b 9e bf c5 2c f9 bf
       -0.13823475 -2.0148842 -1.2366802 -1.9466788
000070 13 3a 32 c0 66 d3 15 c0 9e 00 5b c0 70 89 37 c0
       -2.7847946 -2.3410277 -3.4219127 -2.8677635
000080 11 88 1b c0 23 6d 7d bf 5d 04 07 c0 c0 78 92 c0
       -2.4301798 -0.98994654 -2.1096413 -4.57724
000090 eb c4 93 bf 72 93 4c c0 f8 68 2e c0 b5 38 f3 bf
       -1.154447 -3.1964993 -2.7251568 -1.9001681
0000a0 2e aa ac bf fb 13 39 c0 bf 4a a0 bf 8a 43 b1 bf
       -1.3489435 -2.8918445 -1.2522811 -1.3848736
0000b0 82 8b d1 bf ef 31 36 bf c5 61 6f bf 77 3e 57 c0
       -1.63707 -0.7116994 -0.9350856 -3.3631876
0000c0 eb 0b 3b c0 3c e5 18 c0 85 2f 1c c0 25 59 31 c0
       -2.9226024 -2.3889914 -2.4404004 -2.771066
0000d0 24 e4 4d bf 37 08 e1 bf 00 22 e3 bf 9d 36 92 bf
       -0.8042624 -1.7580632 -1.7744751 -1.1422917
0000e0 74 d4 3b be 2e 3a 3c c0 ee d5 5d bf 78 e0 fb bf
       -0.18342763 -2.941051 -0.86654556 -1.9677877
0000f0 f1 bc e0 bf 93 ee 21 3f 4d 0f 92 3d cf a8 27 c0
       -1.755766 0.6325466 0.07131825 -2.6196783
000100 8c a1 fa bf ba cd 21 c0 20 ca a7 bf 23 0a 71 bf
       -1.958055 -2.5281816 -1.3108559 -0.9415609
000110 44 c2 5d c0 b5 da f0 bf a8 63 2b c0 ef c2 ed bf
       -3.464982 -1.8816744 -2.6779575 -1.8575114
000120 3d 50 0f bf b5 68 ce bf 07 68 0a c0 93 af 52 c0
       -0.5598181 -1.6125704 -2.1625993 -3.2919662
000130 a1 2f 73 c0 25 58 7d c0 77 a2 29 c0 56 89 11 bf
       -3.799782 -3.958505 -2.650541 -0.56850183
000140 9c 6c f2 bf 0c eb eb bf 6a 5c 39 c0 ae d5 24 c0
       -1.8939395 -1.8431106 -2.8962655 -2.575542
000150 81 ef 08 c0 54 23 38 c0 03 0e f0 bf 77 0a 34 c0
       -2.1396182 -2.8771563 -1.8754276 -2.8131387
000160 ed be f9 bf cf 25 0e c0 3f 0c 41 c0 5a 5f 25 bf
       -1.9511391 -2.2210577 -3.0163724 -0.6459862
000170 6d ff 2f c0 40 18 dd bf 41 e8 36 c0 1f 01 4b c0
       -2.749965 -1.7273026 -2.8579257 -3.1719434
000180 99 92 d7 bf 54 c3 25 c0 ee 80 14 c0 f6 08 12 bd
       -1.6841613 -2.590047 -2.3203692 -0.035653077
000190 5b e4 e6 bf 21 77 9e bf 11 1d 64 bf d2 ef c2 be
       -1.8038439 -1.2380105 -0.8910685 -0.38073593
0001a0 c6 ab f2 bf 03 b5 df 3f 00 60 ce bf e8 c7 28 c0
       -1.8958671 1.7477115 -1.6123047 -2.6372013
0001b0 2e 86 1b c0 a1 93 b4 be fd cb 80 c0 17 2b f3 be
       -2.4300647 -0.35268882 -4.024901 -0.47493812
0001c0 a6 a3 66 c0 0c b6 ae be 5b bf f5 bf 14 a6 3f c0
       -3.6037383 -0.34123266 -1.9199022 -2.9945116
0001d0 6c 9d 36 be 97 ed 16 c0 56 0d 1e c0 79 88 b6 c0
       -0.17833489 -2.3582513 -2.469564 -5.7041593
0001e0 5b 70 06 c0 9a 65 1e c0 c9 77 17 c0 25 8d a3 bf
       -2.1006076 -2.4749513 -2.366686 -1.2777449
0001f0 61 0d ff bf 9b bf 20 bf a7 f8 0f c0 93 a3 14 c0
       -1.9925958 -0.62792367 -2.2495515 -2.3224838

fc2.weight f4 [64, 132]
000000 d6 2b 49 bf f6 d7 9c 3c fb cf 12 be e5 35 40 bd
       -0.78582513 0.019145947 -0.14337151 -0.046926398
000010 0f 4b 84 3f 30 26 bc be aa 68 3b be 86 58 2a be
       1.0335406 -0.36747885 -0.18301645 -0.16635332
000020 09 4b 47 3e 14 1e db bd 16 9c 22 bf bc ea 44 3d
       0.19462217 -0.10699096 -0.6351942 0.048075423
000030 49 86 85 be 9c 69 be be 02 a4 d7 be 0b 9e 4e be
       -0.26079014 -0.3718995 -0.42117316 -0.20177476
000040 59 c1 13 bf 46 25 3f 3e e6 76 83 3e 84 e6 e1 bc
       -0.577169 0.18666562 0.2567665 -0.027575739
000050 81 85 16 bf a7 36 1f bf e3 03 82 bd 51 74 9e bd
       -0.5879746 -0.6219277 -0.063483976 -0.07737029
000060 e8 73 03 bf 68 c0 8c bf 6f 9f 0c bd 85 ac cd 3d
       -0.51348734 -1.0996218 -0.034331735 0.10042671
000070 4d af a7 be 3f d8 f9 bc 13 b6 1f bf 13 12 09 3e
       -0.3275093 -0.030498622 -0.623872 0.13385801
000080 67 69 df be 6c 5e 1f bf 83 c1 c2 be 83 66 da 3e
       -0.43635103 -0.6225345 -0.38038263 0.42656335
000090 d5 39 d7 bd b0 fd 9a bd d0 52 7a be 01 fd ae 3e
       -0.105090775 -0.07567918 -0.24445653 0.34177402
0000a0 9e 36 b2 bd 00 b5 fc bf 17 e1 9c 3e 15 26 0d bf
       -0.08701824 -1.9742737 0.3064048 -0.55136234
0000b0 4e f6 3f 3e eb 72 3b 3e c0 6c e1 3e ed e7 8b be
       0.18746302 0.18305556 0.44028282 -0.27325383
0000c0 4c 36 17 bf 94 d0 05 be 8b 60 f7 bc e2 35 c1 3e
       -0.59067225 -0.13067847 -0.030197402 0.37736422
0000d0 ec a1 26 bf be c5 de be 0a 44 64 3e 31 94 d8 3e
       -0.65090823 -0.4351024 0.2229158 0.4230056
0000e0 2d 05 b0 be f4 de e4 bd 47 57 1f 3e 6a 5e f1 bd
       -0.3437895 -0.111753374 0.15560637 -0.11785586
0000f0 0a db 8f be c1 38 01 be 08 7d 11 bd dd 61 fa be
       -0.280968 -0.12619306 -0.03551963 -0.4890279
000100 38 8e 24 bf 16 0b ce be e4 f2 de be 08 f4 4e 3e
       -0.6427951 -0.40242833 -0.43544686 0.20210278
000110 cd de 05 3e 05 46 1c 3d c5 94 29 bf b9 e6 c3 bf
       0.13073273 0.038152713 -0.6624263 -1.5304786
000120 85 91 15 3e 8a bf 32 ba b0 67 88 3f 47 c4 94 3d
       0.14606293 -0.00068187027 1.0656643 0.072639994
000130 de d4 83 3d b6 4c 58 3f 8b 29 ad 3e f1 eb b4 bd
       0.064370856 0.8449205 0.33820757 -0.08834065
000140 0a aa 36 bf 5e 81 f0 3e 15 fb 56 bd 5b 96 7e bf
       -0.7135321 0.469737 -0.052485544 -0.99448174
000150 a3 a0 b5 be dd 3a ab 3e d5 ce d4 bd 28 55 a1 3d
       -0.3547412 0.33443347 -0.103910126 0.078775704
000160 01 07 14 be 0f c9 36 bf 94 12 fd bf ad b3 a3 3e
       -0.14455797 -0.7140054 -1.9771295 0.3197302
000170 b1 ad 21 be 54 0b e6 be b7 54 ad 3c 3c cc 85 3d
       -0.15788914 -0.44930518 0.02115856 0.06533095
000180 9d 66 95 bd 27 c0 ce bd a5 c7 c8 bc de a8 46 be
       -0.072949626 -0.10095244 -0.02450926 -0.19400355
000190 26 7c c0 be 06 3a 8e bf 28 da 97 be a0 43 43 3e
       -0.37594718 -1.1111457 -0.29658628 0.19068766
0001a0 c3 9c d7 be ee 3e b9 be 75 76 aa bd 04 ce b0 be
       -0.42111787 -0.36180824 -0.08323375 -0.34532177
0001b0 90 ce e9 3e 99 b2 17 3f 47 71 b5 bf ae 54 ac be
       0.45665407 0.59256893 -1.4175195 -0.33658355
0001c0 ff e6 cb bf 55 4f 44 be 86 ed 78 bf 49 ff 37 be
       -1.592987 -0.19170888 -0.9723743 -0.17968477
0001d0 5c 7a 8b 3d 36 7e f8 3b 6f 76 a9 3e c8 17 c6 bf
       0.068104476 0.007583405 0.3309817 -1.5476007
0001e0 fb 80 42 3d 29 d4 69 be 60 3e 8d be 65 d6 ed be
       0.047486287 -0.22834839 -0.2758665 -0.46452633
0001f0 79 53 7b bf 1c 69 94 be cf 82 01 be 5e 55 ff ba
       -0.98174244 -0.28986442 -0.12647556 -0.0019480397
000200 80 98 05 3f a1 f1 7f be ef 3c 72 40 ce 6a e0 bf
       0.5218582 -0.24994518 3.784969 -1.7532594
000210 bc 95 57 3f 80 84 cb 3e 41 b7 54 3e ea db 97 3d
       0.8421285 0.39749527 0.20773031 0.07414992
000220 1b 5a 1c 3e 91 06 0f 3e 69 33 fa 3d a9 78 21 bd
       0.15268748 0.13967349 0.12216837 -0.03942171
000230 aa 92 36 3f 02 1d 16 be 36 e4 82 3e 3c db 05 3e
       0.7131754 -0.14659503 0.25564736 0.13071913
000240 93 75 a5 ba d5 d7 02 3f 99 5a 59 3d 5e 4b a9 be
       -0.0012623541 0.51110584 0.053064916 -0.33065313
000250 20 44 47 3e 26 bf cf 3d a7 43 8a 3c dc ed 69 bd
       0.19459581 0.101438805 0.016877962 -0.057111606
000260 66 1d 81 bf 9b 25 e5 be 41 2a 19 be a0 39 83 3d
       -1.0087097 -0.44755253 -0.14957525 0.064074755
000270 0c 72 ac 3e 6e fb 12 3d 64 59 21 3f e9 e1 97 3e
       0.3368076 0.035884313 0.63027024 0.29664543
000280 96 07 00 3f 07 aa 0c 3e 1e 75 ba be 51 fe a1 3e
       0.50011575 0.13736735 -0.36417478 0.3163934
000290 0b 10 28 bd 6d a1 81 3e ef d3 74 bc 49 17 18 be
       -0.041030925 0.2531847 -0.014943107 -0.14852633
0002a0 f0 d7 69 be 2e 91 2d 3f 23 3e 3c be 01 8c 0d be
       -0.2283628 0.6779965 -0.18383078 -0.13822939
0002b0 a9 06 7c be 81 5c 12 be fe bd 1e 3e 85 53 d5 be
       -0.24611916 -0.142931 0.15502164 -0.41665283
0002c0 30 d8 14 3f a4 74 3f 3e 96 cd 20 3e 6d d3 88 be
       0.58142376 0.18696839 0.15703425 -0.26723805
0002d0 af 1a 96 be 12 f0 3a ba 00 e7 64 be cd 7c 83 be
       -0.29317233 -0.000713111 -0.22353745 -0.25681153
0002e0 19 b1 72 3f ef dd 82 bf f7 22 e3 be a1 37 6e be
       0.9480148 -1.0223979 -0.44362614 -0.23263408
0002f0 94 85 a4 bc a3 f6 82 be 6e 23 f9 be ff ed 8b be
       -0.020083226 -0.25578794 -0.48659843 -0.27330014
000300 8e e1 ed 3e bf c3 0d be 1f 14 06 bf 3a 67 9a bf
       0.46461147 -0.13844202 -0.5237445 -1.2062752
000310 b2 c7 8a be 1d 6c 61 3e c0 6a 0c bf aa ce 6c be
       -0.2710548 0.22013898 -0.5485039 -0.23125711
000320 7b a8 d7 3e 9a 71 fa 3e 6f 91 d9 be 3a 69 55 3e
       0.42120728 0.48914796 -0.4249377 0.20840922
000330 80 e0 a1 3e b4 4b 10 3f be 10 fa be 64 70 c5 be
       0.31616592 0.56365514 -0.48840898 -0.3856231
000340 7a a7 b2 be 3d e3 aa bc 2a b2 6e be 30 c0 12 be
       -0.348934 -0.020860309 -0.23310152 -0.14331126
000350 22 2e 83 3e 88 99 89 bd 5a 4d 90 be a7 2b 4f be
       0.25621134 -0.06718737 -0.28184015 -0.20231496
000360 9e 20 ee bd c4 00 29 bd 12 fb 4c 3e 89 9b 31 bd
       -0.11627315 -0.041260496 0.2001765 -0.04336122
000370 c4 c2 38 3f c1 a1 f1 be 6d 0a 89 bd 98 44 ef 3e
       0.7217219 -0.4719372 -0.06691442 0.4673202
000380 6d b7 89 bf fe 40 2c 3e fb 2f b6 3d 67 8a 62 3e
       -1.0759102 0.16821668 0.0889587 0.22123109
000390 50 a4 b1 be c5 4a ac 3e db 15 90 be b6 9b c0 bd
       -0.34695673 0.33650795 -0.28141674 -0.094046995
0003a0 7f a7 a8 b9 79 64 2b bf ce ad f9 3d 8c ca 78 3e
       -0.0003216825 -0.66950184 0.12191354 0.24296016
0003b0 aa 74 90 3d 4b fa 7f 3d 24 5a 22 3f 9b 3b 33 bf
       0.07053502 0.062494557 0.63418794 -0.70012826
0003c0 d8 3d e8 bc 4f ce 9d be 2c 6e 17 3f 2f 6b 28 3e
       -0.028349802 -0.30821463 0.59152484 0.16447137
0003d0 25 10 84 bf 7f b3 8e bf 98 b0 a5 bf ae dd 9c bf
       -1.0317427 -1.1148528 -1.2944517 -1.2255151
0003e0 9b 1c 29 3e 7d 37 a7 bc bd d7 f1 3d 9e 5b 49 bf
       0.16514818 -0.020412201 0.11808727 -0.7865542
0003f0 5a 95 3c bd d9 ab 42 3e 0d b7 b4 3e 65 eb 24 3f
       -0.04604087 0.19010867 0.35295907 0.64421684

fc2.bias f4 [64]
000000 33 22 8f bf 23 82 36 c0 d3 58 ad 3e 12 c8 0d c0
       -1.1182312 -2.851693 0.3385683 -2.2153363
000010 7f 30 01 bf 88 0b 41 bf c4 85 3c c0 df ca 27 40
       -0.50464624 -0.7540822 -2.9456644 2.6217573
000020 f1 4c 1b bf 67 8d 1b c0 e0 c3 e0 bf 76 c0 ae bf
       -0.6066428 -2.4305055 -1.7559776 -1.3652484
000030 06 6f e3 bf b8 e9 82 3f 40 08 3d be 90 a1 ff bf
       -1.7768257 1.0227575 -0.18460178 -1.997118
000040 97 58 42 c0 7a 04 a9 3f fd 92 bb bf 63 e0 85 c0
       -3.036657 1.3204491 -1.4654232 -4.183641
000050 84 3d e4 3f 58 6c e8 bf 4f 7c be 3e fe 11 42 bf
       1.7831273 -1.8158064 0.37204215 -0.75808704
000060 d9 09 a5 3e b0 a4 d0 3e 40 e1 9e bd 46 e5 16 40
       0.32234076 0.40750647 -0.07757807 2.3577437
000070 cf 10 8a bf 34 73 b7 bf 35 70 c2 3f a3 35 29 c0
       -1.078638 -1.4332032 1.5190493 -2.6438987
000080 82 7a 1f 40 0f 61 09 c0 2f ad 8f bf c3 28 de bf
       2.4918523 -2.146549 -1.1224726 -1.735619
000090 ec e3 76 bf bb 01 06 c0 44 b5 e3 bf 1f 54 6a c0
       -0.9644153 -2.0938556 -1.7789693 -3.6613843
0000a0 7e 03 af be 0d 9a d0 bf bc 84 2a be 76 ff 0e c0
       -0.34182352 -1.6297013 -0.16652197 -2.234342
0000b0 9a a7 44 40 66 33 94 3f ba 63 e1 bf 3b 43 1d c0
       3.0727296 1.1578186 -1.7608559 -2.4572284
0000c0 62 95 ed 3f 72 81 cc be 65 47 36 be f0 84 d2 3f
       1.8561213 -0.3994251 -0.17800672 1.6446819
0000d0 70 6d d2 3d 9e 9a b2 bf 5d 64 4b bf b5 81 b6 be
       0.1027478 -1.3953435 -0.7945002 -0.35645834
0000e0 df 85 ca bf 10 e7 27 c0 a4 24 c8 bf 95 9d 4f bf
       -1.5822104 -2.623478 -1.5636182 -0.81099826
0000f0 2e e6 28 3e 84 3d d4 be 30 39 a4 bf 1c 2e 26 be
       0.16494057 -0.41453183 -1.2829952 -0.16228527

fc3.weight f4 [1, 64]
000000 4a 59 49 bc 89 47 42 bc ac 8a 78 bc 6a 31 94 bc
       -0.012289355 -0.011857876 -0.015169781 -0.018089969
000010 c3 02 4c bc 61 01 69 bc 78 10 24 bd 89 3e 27 3c
       -0.01245183 -0.01422152 -0.04005477 0.010207781
000020 88 ed 59 bc 94 fc c4 bc 92 85 16 bc 0d ab 99 3c
       -0.013301261 -0.02404622 -0.009187119 0.018758321
000030 13 77 76 bc dc 31 4e 3c eb 7d 4e bc 42 57 3f 3c
       -0.015043038 0.01258513 -0.012603263 0.011678519
000040 c5 57 92 bc e4 33 85 3c c6 81 90 bc bd 56 c3 3e
       -0.017864117 0.016260095 -0.017640006 0.38152114
000050 be bd 96 3c 05 dd 9c bc 95 48 55 bc 6a 5e 02 3d
       0.018401023 -0.01914836 -0.013017793 0.03182832
000060 9f 33 06 bc 50 2a d0 3c 76 c2 31 bc ff 5c ab 3c
       -0.008191018 0.025410801 -0.010849586 0.020918367
000070 b7 fd 7f 3c c2 c9 75 bc 80 ad fe 3b 28 99 4d bc
       0.015624455 -0.015001716 0.0077721477 -0.012548722
000080 10 30 ce 3c 6c c7 32 bc e7 f1 8e bc 8a ab 30 bc
       0.025169402 -0.010911804 -0.017449332 -0.010783086
000090 06 e0 bf bc 8b 39 04 bc e5 00 a1 bc f2 24 ca bc
       -0.023422252 -0.00807036 -0.019653747 -0.02467582
0000a0 72 09 a7 3c 9a 84 04 bd f8 88 b6 bc cb f1 53 3c
       0.020390246 -0.03235302 -0.022282109 0.012936066
0000b0 9d 10 ef 3c 7c 7d 82 3c 28 d0 b5 bc 51 89 c8 bc
       0.029182727 0.015928976 -0.022193983 -0.02447954
0000c0 df 97 61 3c dc d1 80 bc bf 49 d2 3c bc ed b8 3c
       0.013769119 -0.015725069 0.02566993 0.022574298
0000d0 9e 95 66 3c fc 64 88 bc 06 e1 9b bc 89 a1 8c 3c
       0.014073757 -0.016649716 -0.019028198 0.01716687
0000e0 1a ba 4e bc b6 e6 8c be ce 4b 00 bd 1a 1e 7f bc
       -0.012617612 -0.27519768 -0.031322293 -0.015571142
0000f0 3d a6 3d 3c 55 9b 5a 3c a4 33 d6 bc ce 6e 81 3c
       0.011575279 0.013342698 -0.026147671 0.015799906
