Multiple_Arms/checkpoint_actor_v0.4.pth (torch_old, 881153 bytes, 6 tensors)

fc1.weight f4 [450, 33]
000000 97 aa 36 bc 2f 06 d5 3d be fe 4a 3a ca b6 15 3d
       -0.01114907 0.1040157 0.0007743648 0.036551274
000010 71 6d 5c 3d 04 7c e9 bc 9d b7 97 ba 18 1f 62 bd
       0.05381531 -0.028501518 -0.0011575107 -0.055205435
000020 30 b4 3f 3d c8 c9 d6 bc 21 a0 a8 bd 77 9d 19 bc
       0.0468027 -0.026219264 -0.08233667 -0.009375921
000030 cf 37 5a bd 85 91 d7 3d bf 9a 06 3e c6 3d c0 bd
       -0.05327588 0.105258025 0.13144968 -0.09386782
000040 7b d4 82 3d e7 ab 37 bd 61 59 18 bd 86 9f ab 3d
       0.06388184 -0.044841673 -0.037194613 0.08380036
000050 6d ce 70 3c 2c a6 de bc 10 de 94 bd 0a e7 59 bd
       0.014697653 -0.027178846 -0.072689176 -0.05319885
000060 d4 41 24 3c 97 b7 c0 bd 13 08 0f 3d 34 0e d6 bb
       0.01002546 -0.09410017 0.03491981 -0.006532455
000070 d8 91 5e bd e0 c9 5c 3b b3 45 18 bd fd d6 17 3d
       -0.054338306 0.0033689663 -0.037175845 0.037070263
000080 19 88 ff bd 3b 35 39 be 1c 6c 91 bb 02 6d 07 be
       -0.124771304 -0.18086712 -0.0044379365 -0.13225177
000090 32 99 b4 bb a5 39 b6 bd 6f a8 29 bd 1e fc 97 39
       -0.0055114264 -0.088977136 -0.041420396 0.00028988806
0000a0 81 48 82 3d 21 9c 95 bd d7 0f 13 3d 32 87 38 3c
       0.06361485 -0.0730517 0.035903778 0.011262702
0000b0 9f d4 f5 bd 9b 96 8a bd f5 81 9f bc fb 84 89 3d
       -0.12003445 -0.06767007 -0.019471148 0.06714817
0000c0 ac 03 17 3c cd 35 e6 bc 4a 82 8d bd 0a 27 a7 3d
       0.009217184 -0.028101826 -0.06909616 0.08161743
0000d0 cc 8a de 3c c7 69 b5 bd f6 4b 11 3e e4 fd 0f 3c
       0.027165793 -0.08858066 0.14189133 0.00878856
0000e0 a5 54 e6 3d 7d e1 c0 3c c4 44 74 bd f7 3e d7 3d
       0.112466134 0.023545021 -0.059635893 0.105100565
0000f0 9a 37 dc bc e3 8c 0e 3d 00 ef 18 3c 50 d9 4d bd
       -0.026881982 0.03480233 0.009334326 -0.050256073
000100 42 b6 05 bd 5f b4 53 3e af 13 e0 3d 1d 82 56 3e
       -0.032644518 0.20674275 0.10941254 0.20948072
000110 ae f1 d8 bc 8d 3c 10 be db 66 8f 3d bd 47 27 3d
       -0.02648243 -0.14085598 0.0700204 0.0408399
000120 26 92 69 bd 8f d1 0f 3e d3 eb ce 3d c9 a1 fc 3d
       -0.057024144 0.14044784 0.10103574 0.123355456
000130 d2 db 39 3d ad ca b5 3c 95 86 91 bd fb b0 57 3d
       0.045375653 0.02219137 -0.071057476 0.052659016
000140 a1 60 79 3e 5c 18 23 3c e6 cc 71 3d d9 eb 12 3d
       0.24353267 0.009954538 0.059033297 0.035869453
000150 6f 6c 9d bd d0 76 c3 bd 46 c2 aa 3d 9a de 29 bd
       -0.07686698 -0.09544146 0.08337836 -0.041472055
000160 e3 a1 44 bd e6 e4 33 3d 7b d8 1a 3e bb 38 df 3d
       -0.04800595 0.043919466 0.15121643 0.10899492
000170 f8 63 a3 3c 90 00 eb 3d 09 9d 1b bd 80 51 09 bd
       0.01994513 0.11474717 -0.037991557 -0.03352499
000180 a9 04 55 bd d0 48 21 3c 20 83 3d 3e 43 25 3b 3d
       -0.052006397 0.00984402 0.18507051 0.045689832
000190 25 ab 27 3e 45 6f 33 3e 47 ca a0 3c fe 2a 6a 3d
       0.1637388 0.17522915 0.019627703 0.057169907
0001a0 11 1d c3 3d 35 85 d2 3d b7 a3 be bd fd b0 ea bd
       0.09527028 0.102793135 -0.0930857 -0.11459539
0001b0 2a 6c 21 3d 80 b1 6d bd cb 7c 94 3d ff ac f7 3b
       0.039409794 -0.058030605 0.07250365 0.0075584645
0001c0 f4 ca 1d be a1 ca 88 3c 43 a9 15 bd 20 91 73 3c
       -0.15409452 0.016698183 -0.036538374 0.014866143
0001d0 00 17 34 3d e6 e2 93 3c b9 8d 27 bc 3e a9 77 bd
       0.043967247 0.01805253 -0.01022666 -0.060464136
0001e0 26 07 3f 3c 66 69 2a 3d 61 b5 1e be 4a 6a 8c bd
       0.011659419 0.041604422 -0.15498878 -0.068562105
0001f0 dd b8 3b bc 0d d3 2c 3d af 55 ce 3a 77 7b c0 3b
       -0.011457649 0.04219346 0.0015742088 0.005874093
000200 eb 80 38 3d d9 d7 6c 3d f2 70 cf 3c 9d 91 dc 3d
       0.04504482 0.057823036 0.025322411 0.10769961
000210 10 3a 38 3c cb 0c 3d 3d 06 23 6a 3e f5 c6 07 bd
       0.011244312 0.04615478 0.22864923 -0.033148725
000220 30 47 85 bd c7 e6 36 bd 05 e7 ed 3d ff 53 83 bd
       -0.065077186 -0.04465368 0.11616329 -0.06412505
000230 f1 88 c9 bc ca da 89 bd 07 5e 56 bd c2 60 6e bd
       -0.024601432 -0.06731184 -0.052335765 -0.058197744
000240 f7 80 7c 3c 47 74 ee bd 42 48 bb 3d 55 8d e4 bc
       0.015411607 -0.11643272 0.091446415 -0.027899424
000250 41 58 1f 3c be 16 3e 3d 38 2e ed 3d 5d b8 23 3d
       0.009725631 0.046408407 0.11581081 0.039970744
000260 66 cd dc bb 99 68 53 bd 9a 38 9c bc 69 1b 2a bd
       -0.0067383526 -0.051613424 -0.019069958 -0.041530047
000270 e8 8c ca 3d 20 da 68 bd ee f1 f8 3b cc ab 96 bc
       0.09890157 -0.056848645 0.0075971996 -0.018392466
000280 bd fb 04 bd 61 03 33 3d 25 64 92 3c b8 d1 dd 3b
       -0.03246664 0.043704394 0.017870018 0.006769385
000290 7a dd a1 3d 18 8e 11 3e 20 b9 1b 3e 30 00 73 3b
       0.079035714 0.1421436 0.15207338 0.003707897
0002a0 91 9b 95 3b 4a 4c 07 3d 3a 77 bd ba b2 aa 8d bd
       0.004565664 0.03303174 -0.0014455088 -0.06917323
0002b0 73 93 6e bd 45 19 4a bc c1 5c c1 3d 46 8d 2a 3e
       -0.058246087 -0.012335126 0.094415195 0.16655454
0002c0 e6 91 50 3c 58 7d 08 3e 89 d7 f9 3d 4d c4 99 bd
       0.012730097 0.13329065 0.12199313 -0.075081445
0002d0 b6 bc 03 bd 81 5e 94 bd 28 12 b0 3c c5 2f d8 bc
       -0.03216239 -0.07244588 0.021493033 -0.026389966
0002e0 09 08 2d 3d 40 e5 1d bd 39 e6 00 be 17 aa d8 bb
       0.04224399 -0.038548708 -0.12587823 -0.006612073
0002f0 e6 55 0b 3d 15 3d 05 bd d3 f7 12 3d d9 55 df bd
       0.034017466 -0.032528955 0.035880875 -0.10905046
000300 bb 97 a2 3d 37 c4 91 bd 16 41 e9 3c 06 c4 09 bd
       0.079390965 -0.07117503 0.028473418 -0.03363421
000310 9e 02 c2 3c bb 8f 20 3d 61 d9 29 bc 5d af 32 3e
       0.023682889 0.039199572 -0.010366769 0.17449708
000320 f6 59 23 3e 6f 6b a2 bd 62 6c 41 3d d8 ec 05 3e
       0.15952286 -0.079306476 0.047222503 0.1307863
000330 64 6e 85 3d 2b 26 aa bb e8 ac aa 3d cd 8d 43 3d
       0.06515196 -0.0051925383 0.083337605 0.047742654
000340 49 36 70 3d 1e 93 9b bd 3f 52 78 3d 53 30 38 3d
       0.05864552 -0.0759642 0.06062531 0.04496796
000350 3f dd d4 bc a4 89 33 3c ae ac 3f 3d ad c7 da 3c
       -0.025984405 0.010958109 0.04679554 0.026706541
000360 29 9f fd bd 53 b0 b8 3c 08 56 29 3e 96 39 a6 bd
       -0.12383873 0.022545015 0.16536725 -0.081164524
000370 ca d0 3d be db ad 8b bd 31 c7 ab bd 0a 6e 24 3c
       -0.18536678 -0.0682027 -0.08387602 0.010036001
000380 f6 0b 58 3d 80 10 82 3d 54 fb 07 be d2 6e bd bc
       0.05274578 0.063508034 -0.13279468 -0.023124132
000390 e6 7f cf bd 9b c5 30 3d 87 15 a1 bc 72 20 1a bd
       -0.101318166 0.0431572 -0.019663585 -0.0376286
0003a0 d9 2a f8 3d 22 c5 3d bd 88 87 e3 bc d7 60 00 3c
       0.121175475 -0.04633058 -0.027774587 0.007835588
0003b0 07 cd 3e bd 0a fc a8 bd 14 f5 12 bd 14 6a 50 3d
       -0.046582248 -0.08251198 -0.035878256 0.050882414
0003c0 6a c4 e6 3c 59 05 84 3d f9 a4 f0 3c 67 f3 9e 3b
       0.02816983 0.064463325 0.02937554 0.004850793
0003d0 c5 cf a9 3d 01 9e 4a be 0d 21 ba 3c f7 de d7 bc
       0.08291582 -0.19786836 0.022720838 -0.026351435
0003e0 cd 7e 1f bd 1b 67 09 bc 9b 0c a1 3c e5 a3 da bd
       -0.038939286 -0.008386399 0.019659331 -0.10675792
0003f0 a3 ed 01 3c b7 b5 bf 3b 00 80 06 3d 9e a6 de bd
       0.007930192 0.0058505195 0.032836914 -0.108716235

fc1.bias f4 [450]
000000 d7 c5 88 3c e1 d3 3a be 6f 3a 0c 3d 14 c6 74 bd
       0.0166959 -0.18244888 0.034235414 -0.059759215
000010 e1 db 3c bd 9d c0 aa bd f5 ae f5 3c c6 e0 c5 bd
       -0.04610813 -0.08337519 0.029990653 -0.09662013
000020 11 81 3f be ef a8 59 be 56 62 20 3d e6 3b b1 3c
       -0.18701579 -0.2125585 0.03915628 0.021635007
000030 18 97 1d 3c 59 66 04 3e f3 c6 14 3d b3 13 57 3e
       0.009618543 0.12929668 0.036322545 0.21003608
000040 55 41 9c 3d 3a ed 88 be 4f f7 0e be e7 87 03 be
       0.076296486 -0.2674349 -0.13961528 -0.12844811
000050 8a 8b 1f be 58 8d 12 3d ce ce 87 bb 7c 6b 2b be
       -0.15580574 0.035779327 -0.004144526 -0.16740221
000060 86 0a e4 3d d0 1d 37 3d 62 4f bc bd 5f 7b 2c 3d
       0.1113482 0.044706166 -0.091948286 0.042109843
000070 e5 30 09 bd 88 15 38 bd 4a 15 94 bd 71 0c 00 3e
       -0.033493895 -0.04494241 -0.07230623 0.12504746
000080 7e 47 1a 3e 36 44 5f 3b f6 55 9f 3d e4 aa 5d 3d
       0.15066335 0.0034067756 0.077800676 0.054118052
000090 30 8c 90 bd d1 b8 15 3e 3f 1c 45 3d 9c 3a 1b 3d
       -0.07057989 0.14621283 0.04812264 0.03789769
0000a0 d9 f9 18 3d e6 30 27 3d 50 9d 38 be 23 0f 8d bc
       0.03734765 0.040818118 -0.1802876 -0.017219132
0000b0 57 7d 07 be 17 8f 2c be bc ca 6f 3d ef 0f 4d bd
       -0.13231407 -0.1685146 0.058542952 -0.050064024
0000c0 a6 16 e4 bd 0d 10 03 3e 3b 27 8d 3d 4b c2 0b bc
       -0.11137132 0.12799092 0.06892248 -0.00853021
0000d0 d6 43 06 3e b7 21 b3 bd cb 83 aa 3d 03 48 14 3e
       0.13111815 -0.08746665 0.08325919 0.14480595
0000e0 f9 f1 63 be 94 01 e2 3d 41 96 8d 3d 11 b6 31 3d
       -0.22260274 0.11035457 0.06913424 0.043386523
0000f0 16 48 47 3e 0d 5f 57 3e 86 cc 07 bd 37 8d 4f 3d
       0.19461092 0.21032353 -0.033154033 0.050671782
000100 83 9d 18 be 01 39 2b be 83 c6 4b bd 89 b3 71 3d
       -0.14903836 -0.16720964 -0.049749862 0.05900911
000110 f2 95 e6 bd e3 0c ba 3d 46 e9 95 be db e5 d3 bd
       -0.112590685 0.09084489 -0.29279536 -0.10346576
000120 d9 22 3c be ff 5b 76 bd 57 f1 66 3d 4e 7d f6 3d
       -0.18372668 -0.060146328 0.056382503 0.12035619
000130 48 af 7e bb 40 44 0a 3e ec 0a 3b be 71 f8 6e 3c
       -0.00388618 0.13502598 -0.18265885 0.0145856
000140 a1 0b 12 be 8a f2 3a be 04 43 33 3e 68 25 21 be
       -0.14262249 -0.18256584 0.17506033 -0.15736926
000150 7a 69 b2 bd 92 9d 45 be 81 ad 8f 3d 8c 8a 2c be
       -0.08711524 -0.1929839 0.07015515 -0.16849726
000160 50 a7 a8 3c 99 d8 e6 bd 2a e9 a0 3d cc bd e6 3b
       0.020587593 -0.112717815 0.078569725 0.0070416685
000170 ee bf 51 be 47 66 22 be 47 35 fd bd 64 a6 12 3e
       -0.20483372 -0.15859328 -0.123636775 0.14321285
000180 a1 3a 9d bd ea f1 f7 bd c4 52 36 bd 31 0a 9f bc
       -0.07677198 -0.12106688 -0.044512525 -0.01941404
000190 b6 e7 2a be b6 57 a5 3d 5e e7 08 bd c3 bb 8f be
       -0.16689953 0.0807337 -0.033423774 -0.28072938
0001a0 c0 25 0f 3e c1 48 5d 3d e1 43 a4 3d b5 dd d4 bb
       0.13979244 0.05402446 0.080207594 -0.006496156
0001b0 15 80 9b bd b4 17 8b bd 88 40 4c 3d d5 92 21 3d
       -0.07592789 -0.067916304 0.04986623 0.03944667
0001c0 82 33 85 3c ba 5d 1e be 82 90 c1 3d ca 5c 85 bc
       0.016259912 -0.15465441 0.09451391 -0.016279597
0001d0 10 24 02 be 7a 72 2a 3c 36 de 1c 3d fa a9 81 bd
       -0.12709069 0.01040327 0.038297854 -0.063312486
0001e0 50 5d ca bd 29 f0 51 bd 5a c2 03 3d 9d e3 1b 3e
       -0.09881079 -0.051254425 0.03216777 0.15223546
0001f0 37 3f 02 be 81 5e c1 3c 57 c4 4d 3d 2f 8c 06 3d
       -0.12719427 0.023604633 0.050236072 0.032848533
000200 6f 38 f6 bd 22 f1 8f 3d d5 86 a3 bc 71 a7 4f be
       -0.120224826 0.07028414 -0.019961754 -0.20278718
000210 6d 9d 39 bd 61 4d 33 bd 86 17 6d 3d c0 b9 2e be
       -0.04531615 -0.043774966 0.05788376 -0.17063046
000220 1a 8f 7b 3d b1 f3 08 be b5 cb 29 3e 40 02 3d be
       0.06141577 -0.13374211 0.16581614 -0.1845789
000230 a0 43 be bd c3 1c d9 bc ee 2c a1 bc 3c 73 b1 bd
       -0.09290242 -0.026502972 -0.019674744 -0.08664557
000240 58 3b 3f be a2 2d 53 bd 5d 9a 02 3c 9b 44 9f 3c
       -0.18674982 -0.05155719 0.007971373 0.019441893
000250 40 d1 4c 3c df 3f dd 3d 3e d6 fa bd 35 3d b4 bd
       0.012501061 0.10803198 -0.12247895 -0.08800737
000260 3b 95 f8 3d 48 e9 c8 bc 3d c3 33 be 3d 0e 48 be
       0.121378385 -0.0245253 -0.17554946 -0.19536681
000270 d1 d8 e6 bd 67 69 b3 3c 73 6c 90 be f8 1c 95 bd
       -0.11271823 0.021900846 -0.2820774 -0.07280916
000280 1e 4b 31 be d7 8f 85 3b bc 0e 06 be 2b c0 4c be
       -0.17313811 0.004075985 -0.13091558 -0.19995181
000290 0c ba fb 3d 28 39 a2 3d 75 82 c9 bd 89 2f a1 3d
       0.12291345 0.07921058 -0.09839336 0.07870395
0002a0 75 3e 0e 3e b1 d2 dc 3c a8 04 4d bd c5 72 89 3d
       0.13891013 0.026955934 -0.05005327 0.06711344
0002b0 5c 93 f9 3d 63 2a 91 3d 3f 5e 33 bc 2e e4 b8 3d
       0.1218631 0.07088163 -0.010947763 0.09027897
0002c0 41 fa 33 3d be 7f bb 3d 0f d8 23 be ad 8c 96 bc
       0.043939833 0.09155224 -0.16000389 -0.018377626
0002d0 65 aa 06 3d 1b 6a 4c bc 8e fa 07 3e 34 82 56 3d
       0.032877345 -0.012476469 0.13279173 0.052370265
0002e0 32 94 bb bd c0 cf 97 3d 23 c5 f0 bd c2 35 9f bc
       -0.091591254 0.07412672 -0.11756351 -0.019434813
0002f0 66 6e 3d be 36 16 13 3e c6 a2 43 3c 6b 9f 1a be
       -0.18499145 0.14363942 0.011940664 -0.15099876
000300 23 0e 98 3d d3 5d 64 3d f4 d0 06 be 3d 95 02 be
       0.07424571 0.05575354 -0.13165647 -0.12752242
000310 a9 e2 1c be bf 70 22 bd 1e 8e 77 bd 18 4b cb bd
       -0.15320839 -0.039658304 -0.060438268 -0.09926432
000320 d6 31 03 be 8a 8b b4 3d b5 35 5b 3e 62 73 97 ba
       -0.1281198 0.088156775 0.21407206 -0.0011554772
000330 2b ea 30 3e 66 64 9a bc 3a 67 33 be 80 3c a9 3d
       0.17276828 -0.018846702 -0.17519847 0.082634926
000340 b4 1a e1 bd 32 e4 a0 3d 0c a8 4a 3e 28 9b 9d bd
       -0.10991421 0.07856025 0.19790667 -0.07695609
000350 14 75 4a bd 92 f6 39 be b0 04 50 be bb 8e 8c bd
       -0.04942806 -0.18160465 -0.20314288 -0.06863161
000360 06 1d 4f 3d 84 da 62 3d df 4d 2f 3e a2 9f 09 3d
       0.05056479 0.055384174 0.17119549 0.033599503
000370 52 7c 38 bc f3 e7 cc 3d aa 8b 06 be f2 7e e7 bd
       -0.011260109 0.10005178 -0.13139215 -0.1130351
000380 32 fc 23 be de d6 08 be 10 5b 09 be 70 d8 de bd
       -0.16014174 -0.13363215 -0.13413644 -0.10881126
000390 9b 94 02 be 2e 61 93 3d 26 c0 33 3c 82 e9 27 be
       -0.12752001 0.0719627 0.010971105 -0.1639767
0003a0 03 db 36 be 47 70 52 3c 66 e4 be bc 31 9f 2a 3d
       -0.17856984 0.012844152 -0.023302268 0.041655723
0003b0 7d 9c a6 3b c2 39 db bd 4e 92 df bd 4c 62 e2 bd
       0.005084573 -0.10704376 -0.10916577 -0.11053905
0003c0 7f 6d 2e be 03 dd 00 be 01 f7 0d 3e b4 75 50 be
       -0.17033957 -0.1258431 0.13863756 -0.203574
0003d0 1d e2 13 3d f9 40 23 bb 56 0c 8b bc 10 56 08 be
       0.03610431 -0.0024910553 -0.016973656 -0.1331408
0003e0 28 bd cd 3d 8e fa 25 3c 82 33 eb bd c6 7e af 3d
       0.10045844 0.010130538 -0.11484434 0.08569102
0003f0 36 3a 1d be 83 c3 87 bd 5a 70 8a be ff 91 0d 3d
       -0.15354237 -0.06629088 -0.27038842 0.03456306

fc2.weight f4 [450, 450]
000000 dd fe 17 3d e4 c0 4a bb be b3 96 3d 2d 50 08 bd
       0.03710829 -0.0030937726 0.07358502 -0.033279587
000010 d0 e3 f0 bc c5 84 29 3d 9f 47 a2 3d e4 3c cf 3b
       -0.029405504 0.041386385 0.07923817 0.0063243974
000020 02 22 f7 bd dd 0a 0d bc da f0 a6 3d 93 b0 59 bc
       -0.12067033 -0.008608547 0.081514075 -0.0132867275
000030 67 65 9e bc d4 38 07 be 3f 39 10 bd 8c 72 30 be
       -0.019335462 -0.13205272 -0.035210844 -0.17231196
000040 ed c5 b0 3e 31 dc 8d bd 73 65 0f be b3 4a 14 be
       0.34526005 -0.06926764 -0.14003544 -0.1448162
000050 38 c7 d8 bd d4 d2 d8 bc e2 1a 89 bd 90 c5 00 bb
       -0.10584873 -0.026467718 -0.066945806 -0.0019649006
000060 86 1b 3d 3b ba 64 dd 3c 90 68 40 3d b5 e9 a1 3d
       0.0028855517 0.02702557 0.04697472 0.07905904
000070 81 e3 4d 3d fe c6 c5 bc b6 24 1b 3e d1 27 50 bb
       0.050265793 -0.024142738 0.15150723 -0.0031762014
000080 c6 c4 97 bd 12 19 c8 3d 37 a1 ac bc f9 8d 03 bd
       -0.074105784 0.09770407 -0.021072967 -0.032117818
000090 e2 27 90 bd c1 b6 d4 bd fc b7 38 bd d2 09 6e 3c
       -0.07038857 -0.1038642 -0.045097336 0.0145287085
0000a0 d3 b2 4d bd b8 90 e0 bc 91 23 7a 3d d4 e5 8a bd
       -0.05021937 -0.027412757 0.061069075 -0.067821175
0000b0 ed 33 97 3d 83 0d 85 be 83 9b 16 bd e8 5e 01 bd
       0.07382951 -0.2598687 -0.0367694 -0.03158465
0000c0 60 63 cc bc c5 c3 24 bd 62 49 e2 bc 95 aa 10 3c
       -0.02494973 -0.040225763 -0.027622882 0.008829732
0000d0 73 ae f2 3d b3 1c 18 bd 80 dc e4 3d 23 c2 22 be
       0.1184968 -0.037136745 0.111748695 -0.1589437
0000e0 9e 9a a1 bd 0c 88 b3 bd 96 4d a5 bd 3d ea aa 3d
       -0.07890819 -0.08766183 -0.08071439 0.08345459
0000f0 db 1d b7 3d e7 41 20 bd 62 9c 05 3e db ee 23 bd
       0.08941241 -0.03912535 0.13047937 -0.040022712
000100 4a 68 7d bd c2 3d 3b bd 15 87 92 3d 1a 73 08 3e
       -0.061867036 -0.045713194 0.07154671 0.13325158
000110 05 99 9f 3d e0 21 c0 3c fd a1 1d be ec b7 b8 bc
       0.07792858 0.023453653 -0.15393825 -0.022548638
000120 48 dc 64 bd f0 84 99 3c a1 ed f1 bd ad b5 a2 3c
       -0.05587414 0.018740147 -0.11812902 0.01986202
000130 38 74 81 3c 94 b6 e3 bc 47 24 9f 3d 32 ea 1e 3d
       0.015802488 -0.027797021 0.07770591 0.038797565
000140 e5 8b 03 bb 59 40 85 bc b7 5c 7b bd fb 5d 5a bd
       -0.0020072397 -0.016266035 -0.061367717 -0.053312283
000150 ac 82 6a 3d a6 e2 6a 3d e0 ba c4 bc ec 2e 7b bc
       0.057253525 0.057345055 -0.02401489 -0.015331011
000160 bc fb 65 bd f8 45 2a 3b 2e ec bf bd 83 7c 35 3e
       -0.056148276 0.0025981646 -0.093712196 0.17723279
000170 71 2d 5c 3d 70 0e d5 bd b4 fa 2d 3c a4 e8 ae bd
       0.053754274 -0.10403144 0.010618854 -0.085404664
000180 e6 a0 d8 3c a0 d8 f7 bd 06 43 99 bc 21 b9 38 bd
       0.02644391 -0.12101865 -0.018708717 -0.045098428
000190 72 a3 37 bc e6 87 38 3d 67 13 28 bd 87 57 58 be
       -0.011208402 0.045051478 -0.04103413 -0.21127139
0001a0 1e e7 65 bc e4 9b 93 bd 8e 85 0d 3d 1d ba d7 bc
       -0.014032153 -0.07207468 0.034551196 -0.026333863
0001b0 f3 9f 36 3c 4e 85 d1 bd a1 19 9a bd c9 f7 fa 3c
       0.011146533 -0.10230504 -0.075244196 0.030635731
0001c0 fe 5f 60 3c 5b c9 34 bd e0 3a 2e bc de da f5 3d
       0.013694761 -0.04413734 -0.010634154 0.12004636
0001d0 47 72 e6 bc 5d c9 56 bd c4 d7 65 bd ab 50 b1 3d
       -0.028130664 -0.05243813 -0.056113973 0.08657964
0001e0 f4 e9 11 3e 63 22 9a 3d f8 e5 bc 3c dc e9 ec 3d
       0.14249402 0.0752609 0.023058876 0.11568043
0001f0 0c a6 fa bc 86 57 94 bd 09 49 11 be 94 7d 02 3d
       -0.030596755 -0.07243256 -0.14188017 0.031858042
000200 ba 74 9a 3c 82 40 d9 3c 4f 44 04 3e 0d 25 d5 bd
       0.018854488 0.026520018 0.12916683 -0.104074575
000210 6f c4 22 be a0 32 fa 3d 2a 96 07 bd 7e 19 d2 3c
       -0.15895246 0.12216687 -0.033102192 0.025646921
000220 0e 41 e7 3c a1 db fd bd 84 f1 99 bc 91 55 70 3c
       0.028229263 -0.123954065 -0.018791921 0.014668838
000230 6a 3f 05 3e 16 8f 2a bd 26 89 a0 bd 43 ec d0 ba
       0.13012472 -0.041640364 -0.07838659 -0.0015939552
000240 fa 9b 6c 3c 92 c5 72 3d b8 ef e6 3c ed 6b 0c 3e
       0.014441485 0.05927045 0.028190479 0.13713045
000250 de f5 a6 bc b5 c1 bc bb cb 74 58 3c a6 59 26 3d
       -0.02038091 -0.0057603964 0.013211439 0.04061284
000260 a2 f5 c7 bc 47 d0 2d be 5d 70 67 3c f6 cb 02 3d
       -0.024409119 -0.16973983 0.014125911 0.031932794
000270 e5 64 07 bd 00 b2 b6 3c 9f 31 de bb dd 36 a2 3c
       -0.033055205 0.022301674 -0.0067808176 0.019801551
000280 07 c9 1f bd 91 31 73 be dc d2 b9 3c a0 6e c7 3c
       -0.039010074 -0.23749377 0.022683553 0.024344742
000290 88 ca a6 3d 46 1b 18 3d 3c 02 f0 bc 14 ca b2 3c
       0.081440985 0.037135385 -0.02929794 0.021824874
0002a0 d1 63 57 be a5 73 e5 3d 11 20 15 3e d3 a0 11 3e
       -0.2103417 0.11203698 0.14563014 0.14221506
0002b0 d0 c7 5b bd 83 91 10 3e e5 4a 3a 3d 1e 1b 8b bc
       -0.053657353 0.14118008 0.04548158 -0.016980704
0002c0 f0 c3 9c bd 4d 72 46 3c 55 fc 03 3e d8 9c 19 3e
       -0.076545596 0.012112212 0.12889226 0.15001237
0002d0 dd bb 6a bd be 18 de bd 7d b4 88 bb 8a af 47 3d
       -0.057308067 -0.10844563 -0.0041719065 0.04875139
0002e0 e6 9d 22 3e 74 d5 c3 bd 4c 2f bf bd 24 55 7b be
       0.15880546 -0.09562197 -0.09335193 -0.24544197
0002f0 6a 38 36 bd 58 28 dc 3d 29 20 11 3e d4 4e eb bd
       -0.044487394 0.107498825 0.14172424 -0.11489645
000300 a9 d7 8f bc 84 76 04 3d 04 3b 6d 3d d9 ea 5b 3b
       -0.01755889 0.032339588 0.05791761 0.0033556728
000310 5f 50 67 3d 59 07 08 3e 99 15 d4 bc f1 dc 27 3e
       0.056473132 0.13284053 -0.025889205 0.16392876
000320 1f cc cf bd 9b 6e 7e 3d 11 49 89 bd d0 13 a7 3d
       -0.10146355 0.0621172 -0.067033894 0.08158076
000330 da 6f ae bb dd c5 dd 3b e9 f9 fe bd c1 67 08 3c
       -0.0053233923 0.006767972 -0.1245001 0.008325518
000340 bc 45 de bd 8d 7b 42 3e da dc f2 bb 75 77 6e 3d
       -0.108531445 0.18992443 -0.0074115815 0.05821939
000350 7d ef 5a 3c e1 6c 67 bc 19 3b 24 3d 14 45 ea 3d
       0.0133627625 -0.01412508 0.040095422 0.11438957
000360 3d 1b 1e be 1f 31 4c bd 2f 9a 4e 3d f5 43 45 bd
       -0.15440078 -0.049851533 0.05044001 -0.048160512
000370 54 df aa 3d b7 96 8e bb e7 8e 6e 3e b7 9a fd 3d
       0.08343378 -0.0043514627 0.232967 0.12383025
000380 4f 46 87 bd bf d6 cd bd 51 e8 6a 3d e3 bd c8 bd
       -0.06605207 -0.10050725 0.05735046 -0.09801843
000390 ba ee bd bc a7 69 55 3d 86 77 bc bd 7b 2d 93 3d
       -0.023185123 0.05210271 -0.09202485 0.07186409
0003a0 0a d9 ed 3c 85 92 44 3d 4f da 4f bc 00 08 94 bd
       0.029034156 0.047991294 -0.012686326 -0.072280884
0003b0 24 90 18 bd d0 c0 36 be b0 2e c0 bd af bb 80 3d
       -0.03724684 -0.1784699 -0.09383905 0.06285798
0003c0 c7 3f 67 bd 9b 51 00 bc e4 49 83 3d 63 b3 6b bd
       -0.056457307 -0.007831956 0.06410578 -0.057544123
0003d0 0d e7 43 3d 77 15 8d 3c ba 30 09 bb 98 61 73 bd
       0.04782777 0.01722215 -0.0020933584 -0.059419245
0003e0 73 60 72 3d 10 94 9b 3d 6c 46 12 3c 7d e9 37 3e
       0.059174012 0.075966 0.008927923 0.17960162
0003f0 ab 9b 1c be 33 ef a5 bd 10 72 25 3d ae 8c bd bc
       -0.15293758 -0.08102264 0.04039198 -0.02313837

fc2.bias f4 [450]
000000 52 08 de bc 06 e2 33 bd 98 e0 59 bb 67 9a 38 bd
       -0.027103577 -0.043916725 -0.003324544 -0.045069125
000010 13 ce 68 bd 62 8c 30 3c 6c dc 25 bc 80 2e f8 3c
       -0.056837153 0.010775657 -0.010123353 0.03029561
000020 27 ec a6 bc 3e 35 1a bc 0a 25 31 bd 9f ca 12 bd
       -0.020376278 -0.009412108 -0.043248214 -0.035837766
000030 16 04 97 bc 7f 21 82 bd 30 0e 0f bd 1e e9 8c 3c
       -0.018434566 -0.06354045 -0.03492564 0.017201003
000040 75 f2 21 3d 4c 5f d3 39 32 f8 9b bd 4a 23 85 bc
       0.039537866 0.00040316058 -0.07615699 -0.016252179
000050 1c a5 77 bd ff 29 80 bd f8 4d 0d bd af c9 3a bd
       -0.060460195 -0.0625801 -0.034498185 -0.045602497
000060 41 3e 62 bd 02 23 d3 3c 44 06 81 bd 7b 75 90 bb
       -0.05523515 0.025773529 -0.06300023 -0.004408536
000070 d2 1c 5b 3b 13 94 ba 3c 18 68 2a bd 8a 78 1b 3c
       0.0033433926 0.022775685 -0.041603178 0.009489188
000080 42 6e c9 3c 64 1c 24 bd 2f ff 74 3d c5 e5 4b bc
       0.024588708 -0.040066138 0.059813675 -0.012444918
000090 5b 57 df 3b 17 95 f1 bc a9 4d 72 bc 9e a8 e8 3b
       0.0068158335 -0.029490037 -0.014789023 0.007100179
0000a0 38 54 26 3b db 52 fe 3c 8c f5 42 bd 87 fc b6 3d
       0.0025379788 0.031045368 -0.047597453 0.089348845
0000b0 45 04 a8 bc 30 27 13 bd e6 9d 3c bc d2 fd e2 bb
       -0.020509848 -0.035926044 -0.011512255 -0.0069272304
0000c0 04 c8 1c bc 72 e2 3f bd 88 9a 37 bd 6d e8 52 3c
       -0.009569172 -0.046846814 -0.044825107 0.012872797
0000d0 21 42 35 b8 9d d6 e2 3c d8 61 10 3d 36 62 81 3d
       -4.321535e-05 0.027690226 0.03524956 0.063175604
0000e0 e7 9c c0 bc 17 8d 4a 3c 22 5e 65 bd 7b e9 98 3c
       -0.023512317 0.01236274 -0.055997975 0.01866602
0000f0 ce 7f 0c 3d 68 8e cc bc 95 3e a4 3c 52 65 79 bd
       0.03430157 -0.024970248 0.020049373 -0.060887642
000100 95 dd a9 3d 00 f4 df 3c a4 bc 88 bd eb 6c 15 bd
       0.082942165 0.027338028 -0.06676605 -0.036480825
000110 4e 77 b4 bc 77 d1 62 bb f4 9b 75 3c 7a d2 ae 3d
       -0.022029545 -0.0034609714 0.014990795 0.08536239
000120 55 92 cc bc ad 0e 28 3c 23 1e 00 bb 30 9b 5c 3c
       -0.02497212 0.010257405 -0.0019549213 0.013464734
000130 f9 93 3b bb 94 c1 83 bc 3f 15 2a bd 4b cd af 3c
       -0.0028622134 -0.016083516 -0.041524168 0.021460196
000140 79 b9 13 be 55 cb 02 bd 79 59 d8 bb 3c 47 34 bd
       -0.14426221 -0.031932194 -0.006602463 -0.044013247
000150 b7 19 38 bd 47 f7 c8 3c 81 63 3c 3d a4 35 d7 3c
       -0.0449464 0.024531974 0.04599333 0.026270695
000160 27 02 7a bd 52 31 3f 3d a4 03 8b bc d9 c9 c1 bc
       -0.06103721 0.046677895 -0.01696951 -0.023655819
000170 ff 19 18 bb 69 db 92 bd b2 c0 59 3c a9 64 bc bc
       -0.0023208854 -0.071707554 0.013290571 -0.022997217
000180 b8 d6 0d bd a2 a5 1a bd 65 d9 68 bd 20 ef b2 3c
       -0.0346286 -0.037755616 -0.05684795 0.02184254
000190 f4 78 6e 3c 6f 2e df bc 83 46 60 bd 25 44 8e 3d
       0.014555205 -0.027243821 -0.054754745 0.06946591
0001a0 49 22 69 bd 72 bb 69 bd aa 93 af bd 4d ab 60 bc
       -0.056917462 -0.057063527 -0.085730866 -0.013712716
0001b0 88 fc 32 3d 48 13 3d bd b5 93 95 bd 28 a5 6b bd
       0.043697864 -0.046160966 -0.073035635 -0.057530552
0001c0 e9 da 85 bd 02 90 99 bc e8 1d c7 ba 40 e1 9a bd
       -0.065358944 -0.018745426 -0.0015191408 -0.07562494
0001d0 66 76 29 bd f0 7c 39 3d 63 ff ba bc 1b 4c 11 3d
       -0.04137268 0.045285165 -0.022826856 0.03547297
0001e0 e1 a9 ac bd 9f 6b e9 bc d0 af a9 bd 3a 9b 1a 3c
       -0.08430839 -0.0284937 -0.08285487 0.009436423
0001f0 6e f2 ba 3c 50 79 34 3c 0f 04 ee bc f1 10 62 3c
       0.022820678 0.011015251 -0.02905467 0.013797984
000200 5d d8 40 bd 93 56 09 bb 48 f6 20 bb e7 02 39 bd
       -0.04708134 -0.0020956143 -0.0024560858 -0.045168784
000210 6c 90 a0 bd 6f 6e 54 bd 8b 3d 86 3d 45 38 64 3d
       -0.07840046 -0.05186313 0.06554707 0.055717725
000220 70 28 53 bd 03 35 b8 ba 22 f1 11 3d 67 99 0f bd
       -0.051552236 -0.0014053885 0.035630353 -0.035058405
000230 b9 c4 0d bc ac 23 3e 3d 4e dd 63 bd 78 d1 66 bd
       -0.008652859 0.046420738 -0.055630974 -0.05635211
000240 50 e4 16 3d e0 3a b1 3b 50 b7 ef bc 1b 4f 4e 3d
       0.03683883 0.00540863 -0.029262215 0.05036841
000250 7b 91 46 3c 63 79 e5 3b 70 17 de bd 72 bf a8 3d
       0.012119646 0.007002996 -0.10844314 0.0823964
000260 a6 30 bc ba ff 89 26 bc 52 21 92 3d d4 f7 71 3c
       -0.001435776 -0.010164737 0.071352616 0.0147685595
000270 b9 fb 5a bc f1 ce 8f bd a5 a0 02 3b bc c0 da bd
       -0.013365679 -0.07021893 0.0019932177 -0.106812924
000280 43 4a 82 3c 1f d3 cd bc d6 2b 11 bb 3d f2 b5 bd
       0.015904551 -0.025125084 -0.0022151372 -0.08884094
000290 31 da 56 3d 5c a5 ed 3b 9a 6e 1c 3c 3e f3 2a 3d
       0.052454177 0.0072523784 0.009547854 0.04173588
0002a0 bf cd 2d 3c 10 9a 00 3c 63 93 46 bc 10 3d 0e bd
       0.010608136 0.007849231 -0.012120101 -0.034726202
0002b0 2b 86 2d bd d4 48 6f 3c 7b 88 5d bc 57 8a 5a bd
       -0.04236428 0.014604766 -0.013521309 -0.053354587
0002c0 a2 e3 20 bd f6 53 a3 bc bb 25 40 bd 00 96 75 bc
       -0.039279588 -0.019937497 -0.046910983 -0.014989376
0002d0 38 ab 36 bb ce c6 87 bd 4f dd a3 bc 57 45 43 3c
       -0.002787305 -0.06629716 -0.02000299 0.011918387
0002e0 30 c6 ff bc 6b af 8a 3c f7 3b d7 3b b2 01 9e bd
       -0.031222433 0.016929349 0.0065684277 -0.07715167
0002f0 67 ec 14 bd 38 ca 03 3d 2a 2b c4 bc e0 a1 07 bd
       -0.036358263 0.032175273 -0.023946363 -0.03311336
000300 3f 6d 8a bc f1 84 9d 3d 66 54 1e 3d 05 14 99 3c
       -0.016897796 0.07691372 0.038654707 0.018686304
000310 ed 51 34 bb 02 f7 93 bc d1 a1 1f 3c d0 00 06 3d
       -0.0027514652 -0.018062118 0.00974317 0.03271562
000320 62 ee 1b 3d 3f 2b fb 3a b8 0d 08 bd 15 58 04 bd
       0.038069136 0.0019162669 -0.03321621 -0.032310564
000330 97 15 6e bd 79 42 97 bc 0e 2c 83 bc 84 0f d4 3d
       -0.05812606 -0.018464314 -0.016012218 0.10354522
000340 a1 4d 09 bd be f9 3a bd 70 3b 70 bd 13 46 cf bc
       -0.0335213 -0.04564833 -0.058650434 -0.025301969
000350 20 4b 81 bc 1d 94 f2 bd 23 50 94 3c 74 9e e8 3b
       -0.015782893 -0.118446566 0.018104618 0.007098967
000360 b6 8b 2b bd 94 9e 9f bb 3b 55 9d 3b b5 ff 2c bd
       -0.041881286 -0.004871199 0.00480142 -0.04223605
000370 97 fc 94 3c c7 45 84 bb fe 54 58 3c a4 cd 4b bd
       0.01818685 -0.0040366384 0.0132038575 -0.04975666
000380 3a d2 28 ba 5b 91 d1 3c 07 29 cb 3b 0a 7d 74 bd
       -0.00064400176 0.025582006 0.006199959 -0.05968956
000390 8c d5 ee bd b6 7c 29 3d 09 93 e5 3c d5 06 17 3d
       -0.116618246 0.0413787 0.028024213 0.03687175
0003a0 83 38 6a bd 1e cd 53 bd 16 e3 01 be c7 5b 56 3d
       -0.0571828 -0.051709287 -0.12684283 0.05233362
0003b0 1d b8 ab bc af 1f 66 bc 55 45 49 bd e3 72 0b 3d
       -0.020961815 -0.01404564 -0.049138386 0.03404511
0003c0 16 54 d7 3b 55 01 17 3d 3f f7 da bb 17 6d 2c 3c
       0.006571303 0.036866505 -0.006682306 0.010524056
0003d0 d2 8b 66 bd c0 97 f4 bd ca 1a c5 bd 52 60 2f 3c
       -0.056285687 -0.119430065 -0.0962425 0.010704117
0003e0 79 00 b6 bd cd 38 a3 bc 88 ec 87 3d f1 75 96 bc
       -0.08886809 -0.019924546 0.06636912 -0.018366786
0003f0 e4 6c 5a bd c8 a3 a8 bb 49 8b dc 3c b3 a2 a8 bc
       -0.053326502 -0.0051464774 0.026921885 -0.020585394

fc3.weight f4 [4, 450]
000000 c9 3b c6 3e 43 53 b3 3e d9 b6 aa be e8 1e c8 be
       0.38717487 0.3502446 -0.33342627 -0.3908608
000010 50 5f a5 3e 2e 7c ca bb 9b 34 b7 3d ae 46 94 3c
       0.3229928 -0.006179354 0.089455806 0.018100109
000020 c3 95 30 3e 76 48 8f 3e c6 19 fe bc 07 17 01 be
       0.1724463 0.2798497 -0.03101815 -0.1260644
000030 60 21 ae bd 6b f2 a8 3e a8 d9 dc 3c c2 18 91 bd
       -0.085024595 0.3299745 0.026959255 -0.070848
000040 cd 11 2e 3e 0c 7c 17 3d f2 ce e3 be 8c 12 20 3a
       0.16998978 0.036983535 -0.44493824 0.00061062793
000050 fb f8 a8 3d fd 56 94 3e e6 c8 eb 3e 36 05 8b bd
       0.08250614 0.28972617 0.4605171 -0.06788103
000060 51 08 34 bd 12 6b a3 be 66 13 33 bf ad 4e 64 bb
       -0.043953244 -0.31917626 -0.69951475 -0.0034836933
000070 00 fb 25 be 00 d2 79 be 98 8b 5f 3e 72 82 f0 bd
       -0.1620903 -0.24396515 0.21830595 -0.117436305
000080 60 49 cb 3e 2b 63 3d be 36 5b 3b be e5 8f 0f bf
       0.39704418 -0.18494861 -0.18296513 -0.5607894
000090 1d e0 5a 3c 75 86 36 3e 62 b0 3a 3e b9 d6 42 3d
       0.013359097 0.17824729 0.18231347 0.047568057
0000a0 d9 f2 5b 3e 7a 86 b0 be 40 4e 99 3c 91 7e 12 3e
       0.21479358 -0.34477597 0.01871407 0.14306094
0000b0 09 5e 72 3d 2b 08 cf be 39 a3 9d 3e 26 ac 48 3e
       0.05917171 -0.4043592 0.30788592 0.1959692
0000c0 4a ad a0 3e ef 5b 15 3e c5 8f ed 3d 26 0f 82 be
       0.3138221 0.14585851 0.115996875 -0.25402182
0000d0 a0 05 84 bd b2 d5 48 3f 4c be fb 3d e5 f4 5f 3e
       -0.064463854 0.78451073 0.122921556 0.21870764
0000e0 1f 05 cf 3d 0a 23 37 be b2 d1 ac 3e 37 f8 88 3e
       0.10108399 -0.1788446 0.33753735 0.26751873
0000f0 d2 1d a4 be 9b b7 27 3e 6a 50 ba 3e aa cf 8b 3d
       -0.32054 0.16378634 0.36389476 0.06826718
000100 97 39 c2 be 70 7b 9e be d6 d1 b5 3d 81 37 92 3e
       -0.37934563 -0.3095355 0.08877914 0.2855797
000110 4e 4c e8 3d c7 d6 19 3d 6b 37 1c be 60 6a f0 be
       0.11342679 0.037558343 -0.15255515 -0.46956158
000120 11 44 75 3e cd 6f de bd 0a 01 25 be fa 02 b0 be
       0.23951747 -0.10861168 -0.16113678 -0.3437727
000130 d0 02 69 3e 0a b0 09 bf c7 a0 a7 3e 7b 59 dd 3e
       0.22754979 -0.5378424 0.3273985 0.4323233
000140 e5 2c a2 be b9 9d f4 3c f9 15 67 3e 59 12 c2 3d
       -0.31674877 0.029860364 0.22566976 0.09476156
000150 fb 36 30 3e 5b 11 8a be a8 cc b9 be 2a 4a 4e 3e
       0.17208473 -0.26966366 -0.36288953 0.20145479
000160 15 24 69 3e e4 30 ae 3e 63 e7 90 3e 57 fa 8c be
       0.2276767 0.34021676 0.28301534 -0.27534744
000170 d7 ad 75 be b3 dc bd 3a 33 7b 16 3e cc 6d cb bd
       -0.23992096 0.0014485329 0.14695434 -0.099330515
000180 2a 6e dd bd df 29 4e be 43 4c d3 be 90 97 a9 3e
       -0.10812028 -0.2013316 -0.4126912 0.33123446
000190 36 a7 c4 be e4 66 82 3d 17 03 65 3d c5 48 02 bf
       -0.38408822 0.06367281 0.05591115 -0.5089229
0001a0 3f b8 2e 3d bf a9 fe 3d 25 43 bc 3d a0 f1 8e be
       0.04265618 0.1243472 0.09192494 -0.2791872
0001b0 c4 87 0f 3e 07 89 94 be 96 b9 d9 be b8 d7 6a 3d
       0.14016634 -0.29010794 -0.42524403 0.05733463
0001c0 31 96 7f 3e 06 8f da bd 19 17 a7 bc bb cc 34 be
       0.24959637 -0.10671811 -0.020396756 -0.17656223
0001d0 19 fb 76 3e 14 cb 99 be 48 e3 53 3e 06 9e 62 be
       0.24119224 -0.3003775 0.2069217 -0.22130594
0001e0 ff ad 41 3e 7a 2d 74 3e 10 db 07 3d 0b fd ef bd
       0.1891403 0.23845473 0.0331679 -0.11718186
0001f0 c4 fc 2a 3e 40 92 c1 bc 05 09 3d 3e 73 30 47 3f
       0.16697985 -0.023629308 0.18460472 0.778083
000200 4e 1e 90 3d 01 d1 25 3e 1f 4f 87 3e c5 4e 22 3d
       0.0703703 0.1619301 0.26427552 0.0396259
000210 54 a4 14 3e 29 68 23 3e 34 07 00 bd 6c 5f c2 bd
       0.14515811 0.15957703 -0.03125687 -0.094908565
000220 51 c0 cf 3e 5d 29 cf 3e 61 9c 9f be 6a f4 14 bf
       0.40576413 0.40461245 -0.31173995 -0.58185446
000230 ed 6f 0e be eb a1 ab be 88 99 64 bd a2 1a 91 3d
       -0.13909884 -0.3352197 -0.05581048 0.07085158
000240 e8 0b f4 3e 70 3f ce 3d f9 3a e3 3d 0f 2f 85 3e
       0.47665334 0.100706935 0.110952325 0.26012465
000250 ea 96 89 be 9f 13 96 3e ef 19 82 3b 1e 73 89 3e
       -0.2687295 0.29311845 0.0039703767 0.2684564
000260 54 a6 77 3d 73 b8 95 bd c6 17 a0 bc 94 43 8c be
       0.060461357 -0.073105715 -0.019542586 -0.27395308
000270 a3 7c 4b 3e b6 b6 84 3e 1a 5f ab 3e 42 3c 14 3e
       0.19871764 0.25920647 0.33470994 0.14476112
000280 50 2e 0e 3f 70 1b cc be f8 9b 70 3e 05 70 a7 3e
       0.5553942 -0.39864683 0.23496997 0.32702652
000290 cc 16 c1 be b4 7c 2b be 79 27 0a 3e 5a 45 9b be
       -0.37712705 -0.16746789 0.1349162 -0.3032635
0002a0 13 a9 af be 9b 0a 82 3e 3a 80 15 be 19 15 46 3e
       -0.3430868 0.25398716 -0.14599696 0.19343986
0002b0 c0 86 b3 3e 24 be 8b bf d2 e7 12 bf 5e af 11 be
       0.35063744 -1.0917401 -0.5738498 -0.14227054
0002c0 09 b8 78 3b 7a 7f a2 be b5 75 a8 be 1a 52 54 be
       0.003795149 -0.31737882 -0.32902303 -0.20734444
0002d0 3f 7f 5d be e3 a8 ba 3e 8a 92 7e 3e 8e cd d2 be
       -0.21630572 0.36456975 0.24860588 -0.4117245
0002e0 57 60 16 3e e3 b8 34 be 74 27 7c be d4 c5 d3 3d
       0.14685188 -0.17648654 -0.24624425 0.10340467
0002f0 05 d6 06 3e a0 16 d3 be 7e 50 b2 be 03 92 5a 3e
       0.1316758 -0.412282 -0.34827036 0.21344762
000300 d5 d7 c1 be e1 9f d8 be de 68 ec be 23 a2 dc 3e
       -0.3785998 -0.42309478 -0.46173757 0.4309245
000310 12 12 17 3e 78 4f 12 3e c7 b0 da 3e 8d 4c 56 bd
       0.14752987 0.14288127 0.42712995 -0.0523191
000320 f4 91 2f be 37 20 05 3e 95 25 72 be 13 d8 c1 3e
       -0.1714552 0.1300057 -0.23647149 0.37860164
000330 76 52 bb 3d b4 88 2c 3e 34 c2 0d 3e b7 6a d8 be
       0.091465876 0.16849023 0.13843614 -0.42268917
000340 65 b8 70 3e f5 86 5a 3e a6 50 8c be 8d 7b e8 3d
       0.23507841 0.21340545 -0.2740528 0.113516904
000350 ea 6b d9 3b 7e e1 04 be 53 0a 93 be 9a f7 4b 3d
       0.006635179 -0.12976643 -0.28718814 0.049796678
000360 30 4d 97 bc 3d 87 84 3e f6 b1 90 bd 13 d8 c1 bc
       -0.018469423 0.2588443 -0.07065193 -0.023662603
000370 f7 a4 c5 3e 8a 62 54 be 2b a5 9d be a7 7f f1 be
       0.3860242 -0.20740715 -0.30790076 -0.47167704
000380 8c 11 a4 bd 34 a1 22 be 01 c1 6b be a6 b6 17 3e
       -0.08011159 -0.15881807 -0.23022844 0.14815769
000390 41 41 36 be 9c 53 96 3e 15 f8 11 be 73 1a 9c 3e
       -0.1779833 0.29360664 -0.14254792 0.3048893
0003a0 6c 9a ec 3e 72 4b 5a 3e ae 62 ae be 84 c4 67 bc
       0.46211565 0.21317843 -0.34059662 -0.014145974
0003b0 db 2b 81 3e 61 6b 00 3e a0 59 d5 3d 89 ad 93 bd
       0.25228772 0.12540962 0.10417485 -0.072108336
0003c0 af e4 b3 3e b0 93 70 be a7 84 9c 3e 43 1c 03 3d
       0.3513541 -0.23493838 0.30569956 0.032009374
0003d0 6b 3f 01 3e cf 37 52 3d c4 58 8d 3d 97 40 84 be
       0.12621848 0.051322754 0.06901696 -0.25830528
0003e0 6e bd cd 3e ee 40 81 3e b0 1e f8 bd 0b fe 85 3e
       0.40183586 0.2524485 -0.12115228 0.26170382
0003f0 5c d7 43 3e 4b 2e 2d 3d 7d ea 54 3d 64 11 c2 be
       0.19125122 0.042280477 0.051981438 -0.37903893

fc3.bias f4 [4]
000000 e0 6e e6 3b a2 8c 64 bd 83 13 20 3c 63 a1 07 bc
       0.0070322603 -0.05579818 0.009770277 -0.008278224
