Multiple_Arms/checkpoint_critic_v0.4.pth (torch_old, 290931 bytes, 5 tensors)

fcs1.weight f4 [250, 33]
0.13913243 0.34509867 0.03726561 -0.07607523 0.057569377 0.48347634 -0.18819134 0.07042364
-0.23009494 0.04685139 -0.18222462 0.12505214 -0.33274972 0.14605 -0.17036875 0.008464302
0.0059684464 -0.005426777 0.5272227 -0.03717091 0.23171288 0.06345626 -0.004625801 0.24732657
-0.41031086 0.04300848 -0.060246717 0.877764 0.28513807 -0.027124863 -0.7866585 -0.009957224
-1.403689 0.45769465 0.3724949 -0.21444468 -0.30996403 0.41223925 0.07045876 -0.18948397
-0.28943962 0.25304583 0.26862597 -0.20312199 -0.11875795 0.006480819 -0.19971907 0.3457512
-0.175229 -0.55077624 0.36697963 -0.44893277 -0.021335574 -0.00025317929 -0.2593798 0.070852585
-0.14632617 -0.3016456 -0.11690301 0.28181943 1.248988 0.49232757 -0.017023016 -1.1746689
0.02182822 -0.08879472 -0.25363526 0.46722096 0.54285985 -0.29623887 -0.50014675 -0.045498766
-0.0784442 0.30654988 0.09178154 -0.19089466 -0.2295054 -0.11627358 -0.061400216 -0.14204039
0.843911 -0.46812385 0.5309597 -0.10535686 0.105987 0.28241977 0.2640465 0.0148987835
-0.080886886 -0.058304496 -0.05892219 -0.12106782 0.18612 0.6236272 0.40233728 -0.06276201
-0.68132937 -0.033583567 0.44128498 0.23221186 0.5196043 0.05729538 -0.60192215 -0.07279286
-0.033234958 -0.6107155 -0.39745432 -0.11138579 -0.4696217 -0.02891753 -0.29513445 0.3452751
-0.07161938 0.73003656 0.052970458 -0.38023683 -0.40933558 -0.43502095 0.0064730486 -0.031985912
-0.1117532 0.32800075 0.18339954 0.1847166 0.19013184 0.096440405 0.8313441 -0.333244
0.02531381 -0.77989197 0.032117143 0.69968307 -0.17392467 -0.28755128 0.028723476 -0.09661969
-0.46605843 0.3280644 0.33763847 0.09641651 -0.19850112 0.0077115498 0.095600225 0.07250937
-0.046945263 0.744448 0.72986555 0.202308 0.044595446 0.014772549 0.047361806 -0.058972243
-0.08927014 0.045252897 0.029419115 0.100299925 0.17132922 0.059613723 -0.61621106 0.4650134
-0.07965772 -0.050379284 -0.408345 -0.03816933 -0.5973191 -0.14035791 1.0384401 0.118261844
-0.52899563 0.5953478 0.418301 -0.040051162 0.12109452 -0.49781704 -0.3210181 -0.18134081
0.15410277 0.035518955 -0.06589845 -0.00698886 -0.05011973 0.43176362 0.06494111 0.6415357
0.1041632 0.039739653 0.49992406 0.21987733 0.050985593 -0.0035038295 0.092760615 0.19322264
1.0752007 0.047138803 0.04883924 -1.062172 -0.04008666 -0.17575723 -0.8183203 0.35384625
-0.15353432 -0.11204922 0.016559463 -0.07891542 0.08436624 -0.010029763 -0.10249224 0.048281908
-0.06082415 -0.00817764 0.0015759394 0.957676 -0.30596432 0.16987437 -0.01687339 -0.039855137
0.12702718 0.0105059855 0.01187973 0.05987319 0.03103136 0.14568186 -0.06553318 -0.012660644
-0.50180936 0.13127768 -0.104677916 -0.04433145 -0.11355314 0.025118813 -0.2141295 0.6145192
0.47732612 0.432219 -0.18981104 0.030554319 -0.08395514 -0.0328464 -0.026174404 -0.03362673
0.15267935 0.022961374 0.11891777 -0.1247715 -0.5551729 0.04293666 -0.61237496 -0.02561919
-0.09855737 -0.23226094 0.10178596 -0.10890687 -0.08817586 0.014362533 -0.10554718 -0.05015447
00000000: bb78 0e3e c6b0 b03e d3a3 183d 55cd 9bbd
00000010: decd 6b3d 368a f73e 3bb5 40be 453a 903d
00000020: 029e 6bbe 3ee7 3f3d 1799 3abe ab0d 003e
00000030: 2c5e aabe 228e 153e 2575 2ebe dbad 0a3c
00000040: f592 c33b 1bd3 b1bb 11f8 063f 8640 18bd
00000050: 2446 6d3e 5bf5 813d 0894 97bb 2d43 7d3e
00000060: 4414 d2be a929 303d 43c5 76bd 24b5 603f
00000070: 9efd 913e f634 debc 7462 49bf a023 23bc
00000080: 15ac b3bf f456 ea3e a7b7 be3e 6397 5bbe
00000090: 9bb3 9ebe 0611 d33e af4c 903d 1608 42be
000000a0: 6e31 94be 398f 813e 5889 893e 36ff 4fbe
000000b0: 5e37 f3bd 0d5d d43b 2883 4cbe 4d06 b13e
000000c0: 3b6f 33be acff 0cbf c1e4 bb3e 84da e5be
000000d0: f1c7 aebc 26bd 84b9 6ecd 84be 291b 913d
000000e0: 87d6 15be 4b71 9abe d86a efbd a34a 903e
000000f0: d7de 9f3f 5c12 fc3e da73 8bbc 8d5b 96bf
00000100: 18d1 b23c 02da b5bd 7bdc 81be 9637 ef3e
00000110: ddf8 0a3f 9fac 97be 9e09 00bf ea5c 3abd
00000120: 5aa7 a0bd 1bf4 9c3e f6f7 bb3d e479 43be
00000130: 7703 6bbe d820 eebd cb7e 7bbd 0973 11be
00000140: 8d0a 583f eead efbe faec 073f 56c5 d7bd
00000150: b60f d93d 5399 903e 1a31 873e 071a 743c
00000160: 06a8 a5bd b2d0 6ebd 6558 71bd 68f2 f7bd
00000170: 3e96 3e3e 08a6 1f3f 27ff cd3e 5e89 80bd
00000180: 9a6b 2ebf ec8e 09bd 1bf0 e13e f2c8 6d3e
00000190: ca04 053f 8fae 6a3d 9217 1abf 6c14 95bd
000001a0: 6121 08bd da57 1cbf 227f cbbe 3c1e e4bd
000001b0: 4172 f0be 75e4 ecbc dd1b 97be e6c7 b03e
000001c0: 2ead 92bd ade3 3a3f 8df7 583d 67ae c2be
000001d0: 6f94 d1be 11bb debe de1b d43b a903 03bd
000001e0: ddde e4bd b7ef a73e 17cd 3b3e 5926 3d3e
000001f0: ecb1 423e 8c82 c53d f8d2 543f f59e aabe
00000200: e85e cf3c 00a7 47bf 448d 033d 6e1e 333f
00000210: 4f19 32be ec39 93be 7f4d eb3c 8be0 c5bd
00000220: 369f eebe 0ff8 a73e f3de ac3e 0576 c53d
00000230: e143 4bbe 2bb1 fc3b 0dca c33d cb7f 943d
00000240: ad49 40bd 2594 3e3f 78d8 3a3f d429 4f3e
00000250: b7a9 363d 9008 723c 74fe 413d e18c 71bd
00000260: 43d3 b6bd 1a5b 393d 5b00 f13c 0c6a cd3d
00000270: ed70 2f3e 852d 743d 02c0 1dbf 3d16 ee3e
00000280: 9623 a3bd 825a 4ebd 9912 d1be 7257 1cbd
00000290: e8e9 18bf fcb9 0fbe 9beb 843f 4433 f23d
000002a0: 426c 07bf b768 183f 8c2b d63e b00c 24bd
000002b0: 6700 f83d e0e1 febe 7c5c a4be 68b1 39be
000002c0: 1ecd 1d3e 537c 113d c4f5 86bd cf02 e5bb
000002d0: 594a 4dbd 1f10 dd3e d8ff 843d af3b 243f
000002e0: 8453 d53d 0cc6 223d 0cf6 ff3e 8627 613e
000002f0: 45d6 503d 81a0 65bb 47f9 bd3d 28dc 453e
00000300: 2da0 893f 9e14 413d a80b 483d 41f5 87bf
00000310: e931 24bd b4f9 33be 707d 51bf 562b b53e
00000320: 1a38 1dbe 107a e5bd b6a7 873c 689e a1bd
00000330: 35c8 ac3d e053 24bc 74e7 d1bd 40c3 453d
00000340: be22 79bd 82fb 05bc c08f ce3a 412a 753f
00000350: 5ba7 9cbe 8cf3 2d3e 103a 8abc 243f 23bd
00000360: 6a13 023e 4c21 2c3c 33a3 423c 973d 753d
00000370: 7b35 fe3c a02d 153e 4336 86bd 976e 4fbc
00000380: 9476 00bf a86d 063e 6061 d6bd e594 35bd
00000390: 8c8e e8bd f8c5 cd3c c344 5bbe 2151 1d3f
000003a0: 1764 f43e cf4b dd3e d35d 42be 0d4d fa3c
000003b0: acf0 abbd f289 06bd b46b d6bc 2fbc 09bd
000003c0: fa57 1c3e 7e19 bc3c 298b f33d 3388 ffbd
000003d0: d01f 0ebf 5ade 2f3d 9bc4 1cbf 56df d1bc
000003e0: 72d8 c9bd d0d5 6dbe 2875 d03d 910a dfbd
000003f0: 8c95 b4bd d450 6b3c 1f29 d8bd c66e 4dbd

fcs1.bias f4 [250]
-0.9139652 -1.393233 -0.75249076 -0.84284544 -0.41439226 -1.1588 -0.29488897 -0.30353352
-0.38094386 -0.93170106 -0.67375356 -1.11322 -0.61467004 -0.47924942 -0.86207 -1.04946
-0.3698727 -0.27961022 -0.7292817 -0.28789347 -0.8077404 -0.832088 -1.120127 -0.3347851
-1.1351048 -0.56654245 -0.98206186 -0.29276565 -0.98491704 -0.38933375 -0.908509 0.56263
-0.7409505 -0.6147703 -0.61835444 -1.0513688 -0.94688576 -0.42865446 -0.565947 -0.16292457
-0.5544331 -0.3192173 -0.58873606 -0.5873661 0.27139255 -0.7437562 -0.6831444 -0.8058972
-0.4058447 -0.7160333 -0.698139 -0.7167342 -0.94624454 -1.1749471 -0.6510125 -0.54803824
-0.76933354 -0.33815596 -0.9308924 -1.2338042 -0.5254519 -0.39359552 -0.76352096 -0.8542619
-0.45393917 -0.5708409 -0.6151934 -0.8134554 -0.1387387 -1.0514421 -1.1681575 -0.54421896
-0.67932814 -0.7542401 -1.2376428 -0.9436634 -0.92362523 -1.1190388 -0.24769872 -0.6528464
-1.1408154 -0.53681743 -0.79969597 -1.0446004 -0.19802848 -1.0165398 -0.40941733 -0.7547295
-0.8642679 -1.026591 -0.6118972 -1.1403409 -0.61796576 -1.1604214 -1.2512676 -0.5380631
0.31239262 -0.8929624 -1.0819279 -1.10322 -0.8771898 -0.935718 -0.9380473 -0.7630607
-0.9323571 -0.40585992 -0.79698426 -0.6337774 -1.0927923 -0.887636 -1.0271213 -0.7299576
-0.9890483 -0.98589224 -0.40886045 0.07422579 -0.6386758 -0.6234054 -0.08108251 -0.44772774
-0.46412086 -0.7459817 -0.5093944 -0.8822392 -0.28456658 -0.7516989 -1.0923206 -1.2485771
-0.45581838 -0.71692795 -0.9603524 -1.0484899 -0.9346915 -0.8153485 -0.65884596 -0.71642596
-0.3213503 -0.46523324 -0.5707033 -1.0617903 -0.7941533 -0.53648937 -1.2566084 -0.31718302
-0.95248795 -0.5724688 -0.41106084 -0.8555616 -0.8887099 -1.056857 -0.8820389 0.09769236
-0.50977665 -1.0569589 -0.7667461 -0.60270435 -0.79989606 -0.68117124 -0.73726887 -0.28152147
0.47711092 -0.3332295 -1.2054498 -0.9519724 -0.61577076 -1.1809644 -0.5274103 -0.99702775
-0.2838565 -0.5347905 -0.70505726 -0.8853245 -0.7435829 -1.1763506 -0.9746538 -0.9501229
-0.8661073 -0.47579244 -0.86758816 -0.22423804 -0.8032603 -1.0063655 -0.17273223 -0.53813654
-0.33811274 -0.8319162 0.99517834 -0.65084714 -0.897787 -1.0041455 -0.80603963 -1.0540981
0.19240342 -1.004548 -1.125081 -0.35335228 -0.43074706 -0.8262729 -0.7393522 -0.686385
-0.79859865 -0.98787606 -0.65433735 -0.66617066 -0.3295541 -0.9004217 -0.3956533 -0.13179754
-0.99626076 -1.1158651 -0.7527627 -0.9229833 -0.52119136 -0.8528221 -0.78983074 -0.8491126
-0.85450155 -1.2059315 -0.82751405 -0.8789208 -0.853988 -0.7487917 -1.167429 -0.6485484
-0.6142471 -0.80930406 -0.7945397 -0.9007549 -0.07840552 -0.6932799 -0.89396197 -0.6669736
-0.6823041 -0.6601028 -0.18200864 0.5381216 -1.229738 0.117408 -1.1072612 -0.84260863
-0.3774195 -0.9442066 -0.7315084 -1.1378438 -0.2925485 -0.7462728 -0.3875886 -0.9004356
-1.3358922 -0.32843158
00000000: a0f9 69bf 7555 b2bf 3ca3 40bf b8c4 57bf
00000010: 392b d4be 8f53 94bf b0fb 96be bf68 9bbe
00000020: 130b c3be f683 6ebf 1d7b 2cbf fe7d 8ebf
00000030: 045b 1dbf 2e60 f5be 9fb0 5cbf b554 86bf
00000040: f45f bdbe 1229 8fbe 35b2 3abf c666 93be
00000050: 13c8 4ebf b803 55bf 5260 8fbf f468 abbe
00000060: 1d4b 91bf ed08 11bf 6868 7bbf 61e5 95be
00000070: 8623 7cbf c156 c7be 0c94 68bf 8508 103f
00000080: efae 3dbf 9661 1dbf 7a4c 1ebf 4193 86bf
00000090: 1b67 72bf 9978 dbbe e7e1 10bf b3d5 26be
000000a0: 54ef 0dbf 7370 a3be 68b7 16bf a05d 16bf
000000b0: f7f3 8a3e ce66 3ebf 8de2 2ebf 474f 4ebf
000000c0: e0ca cfbe f54d 37bf 3db9 32bf e47b 37bf
000000d0: 153d 72bf ab64 96bf c1a8 26bf 3c4c 0cbf
000000e0: 0bf3 44bf c722 adbe f74e 6ebf 4ced 9dbf
000000f0: 0484 06bf 5a85 c9be 1c76 43bf e8b0 5abf
00000100: b76a e8be a122 12bf 517d 1dbf 9d3e 50bf
00000110: 8511 0ebe a895 86bf 2f86 95bf ef51 0bbf
00000120: 73e8 2dbf e115 41bf 146b 9ebf ed93 71bf
00000130: b472 6cbf aa3c 8fbf bca4 7dbe f120 27bf
00000140: 3d06 92bf de6c 09bf e0b8 4cbf 77b5 85bf
00000150: fac7 4abe fa1d 82bf 269f d1be f435 41bf
00000160: a940 5dbf 5567 83bf 4ba5 1cbf b1f6 91bf
00000170: 0133 1ebf b088 94bf 8929 a0bf 81be 09bf
00000180: edf1 9f3e 2f99 64bf 9d7c 8abf 5036 8dbf
00000190: 838f 60bf 378b 6fbf de23 70bf f257 43bf
000001a0: f4ae 6ebf dfcc cfbe 2907 4cbf 3c3f 22bf
000001b0: 9ee0 8bbf 1d3c 63bf b678 83bf 80de 3abf
000001c0: 4532 7dbf 6f63 7cbf 2856 d1be b103 983d
000001d0: 4280 23bf 7f97 1fbf 960e a6bd 923c e5be
000001e0: 40a1 edbe a8f8 3ebf ac67 02bf 6eda 61bf
000001f0: b6b2 91be 576f 40bf 29d1 8bbf 60d1 9fbf
00000200: 0761 e9be 9788 37bf a8d9 75bf eb34 86bf
00000210: f147 6fbf aeba 50bf 21aa 28bf b167 37bf
00000220: 0788 a4be 0d33 eebe 9d19 12bf bfe8 87bf
00000230: a14d 4bbf 5e57 09bf 8bd8 a0bf d065 a2be
00000240: 40d6 73bf 518d 12bf 9176 d2be 1606 5bbf
00000250: 7e82 63bf 1747 87bf 4dcd 61bf ef12 c83d
00000260: b980 02bf 6e4a 87bf 7949 44bf d54a 1abf
00000270: fdc5 4cbf 3d61 2ebf a7bd 3cbf 9523 90be
00000280: e247 f43e 0f9d aabe 2e4c 9abf 77b4 73bf
00000290: 27a3 1dbf d729 97bf 5d04 07bf 363d 7fbf
000002a0: a455 91be 08e8 08bf a27e 34bf a0a4 62bf
000002b0: 735b 3ebf a892 96bf e982 79bf 413b 73bf
000002c0: 35b9 5dbf 119b f3be 421a 5ebf a89e 65be
000002d0: 78a2 4dbf 96d0 80bf b8e0 30be 51c3 09bf
000002e0: 1d1d adbe 76f8 54bf 02c4 7e3f eb9d 26bf
000002f0: 5ed5 65bf d787 80bf 9d58 4ebf b0ec 86bf
00000300: 6705 453e 0795 80bf a702 90bf 97ea b4be
00000310: e18a dcbe 9f86 53bf 3046 3dbf edb6 2fbf
00000320: f670 4cbf 72e5 7cbf a782 27bf 298a 2abf
00000330: 51bb a8be 0982 66bf 1293 cabe eff5 06be
00000340: f20a 7fbf abd4 8ebf 0eb5 40bf a248 6cbf
00000350: cc6c 05bf 8d52 5abf 5932 4abf 715f 59bf
00000360: 9dc0 5abf f75b 9abf f6d7 53bf f400 61bf
00000370: f59e 5abf d0b0 3fbf 506e 95bf 4507 26bf
00000380: 4c3f 1dbf 8d2e 4fbf f466 4bbf e097 66bf
00000390: 1393 a0bd cb7a 31bf b1da 64bf c8be 2abf
000003a0: 7bab 2ebf 7ffc 28bf 7960 3abe 56c2 093f
000003b0: 0e68 9dbf 9b73 f03d bcba 8dbf 33b5 57bf
000003c0: 213d c1be 86b7 71bf 2244 3bbf dea4 91bf
000003d0: ebc8 95be bc0b 3fbf 0372 c6be f382 66bf
000003e0: 84fe aabf 2f28 a8be

fc2.weight f4 [250, 254]
-0.06289688 -0.1646639 -0.113295205 -0.019779898 0.015493943 0.006860682 -0.09922512 -0.16359268
-0.0846428 -0.14035945 -0.046045028 -0.0015985242 -0.1302674 -0.017505778 0.015992638 0.00972355
-0.07055103 -0.046179466 -0.046039265 -0.013719634 -0.10320894 0.032518096 -0.12427753 -0.082147665
-0.018370932 -0.049250394 -0.07642982 -0.12482171 -0.12356065 -0.15501784 -0.04389284 -0.080406554
-0.06714868 0.01782858 0.081811264 -0.03037496 -0.070368774 -0.08941767 -0.011240298 -0.18905474
-0.03453296 -0.086358145 -0.011574078 0.007011968 -0.005646159 0.03701798 -0.030044748 0.014579957
-0.12027264 -0.035815444 -0.04944006 0.00037906232 -0.012418647 -0.05078569 -0.047590245 -0.022205923
-0.081582606 -0.013650931 -0.14499299 0.00892326 -0.06446734 -0.00659377 0.019212203 0.03363454
-0.106166534 0.048826706 -0.05798941 -0.045923155 0.03211945 -0.14811264 -0.09730443 -0.0050966623
0.009751371 -0.021352833 -0.08977073 -0.024789622 -0.030628288 -0.041965447 0.047529057 -0.028384177
0.031313937 0.041130956 0.021145143 0.032403294 -0.098616034 -0.06686207 0.052514844 -0.032751437
0.0025404557 -0.083829425 -0.027624015 -0.04717235 -0.10101835 -0.038017634 0.043527912 -0.008795405
-0.057934377 0.006379927 -0.057307746 -0.03247749 0.0033894288 -0.016163923 -0.0324659 0.0078655975
-0.10959042 0.031074006 0.0109874755 0.064233825 -0.062308654 -0.09684566 -0.04924338 -0.06768606
-0.011386058 0.010068397 -0.13769536 0.048668336 -0.01165951 -0.036218658 0.018189425 0.020063033
0.016389338 0.072939344 -0.05396099 -0.039533567 0.0052611935 -0.12663959 -0.07151289 -0.020640956
-0.029281504 -0.11413402 -0.0660902 0.06710743 -0.10218996 0.0043537496 -0.008720102 0.0090658385
-0.011571352 -0.10629899 -0.03949474 0.025536286 -0.089334376 0.013673057 -0.036371857 0.01992203
-0.08382728 -0.072016664 -0.035013147 -0.07909507 -0.045199286 -0.15073855 -0.010900425 -0.05169055
-0.0517231 0.010858787 0.00021586231 -0.046869773 0.010297582 -0.01848086 -0.09418912 -0.24068478
-0.044045907 -0.041940153 0.026768178 0.0063031167 -0.04261019 -0.0070062885 -0.14220199 -0.0005710049
-0.14529711 -0.07277372 -0.06192672 0.061746344 0.05037394 -0.058455948 -0.18032476 -0.06174305
0.007546546 -0.11881861 0.07809028 -0.12588334 0.013978331 -0.021642713 -0.17218584 -0.0979397
0.03504373 -0.08114066 -0.05124613 -0.10269798 -0.049310926 -0.025286743 -0.097936176 -0.15830763
-0.026949065 -0.054880038 -0.010789463 0.014428382 0.048894886 -0.17338721 0.021093547 -0.014446008
0.032641843 -0.07249606 -0.018446757 -0.06604924 0.04805327 -0.115475684 -0.1278372 -0.036183015
-0.0793562 -0.007593436 -0.04615394 -0.0026705125 -0.041279264 0.046821672 -0.068190984 0.026598554
0.056752365 0.0013105632 -0.04633399 -0.12796809 -0.037834212 -0.08747225 -0.0144216465 -0.06756008
-0.01703235 -0.241139 -0.08406917 -0.011507857 -0.072649345 -0.071371414 0.019960279 -0.08146382
-0.06182556 0.0058457637 -0.08365513 -0.08699199 -0.10288371 -0.08127132 -0.09551739 -0.20830949
0.009782703 -0.024336705 -0.13161689 -0.026556436 0.027674828 -0.07643515 -0.17826621 0.061718274
-0.11462189 -0.03030099 0.15204918 -0.049348626 -0.041663192 0.115559295 0.013456502 0.05646376
00000000: 14d0 80bd a79d 28be 5107 e8bd 7409 a2bc
00000010: 4fda 7d3c 92cf e03b 8a36 cbbd d784 27be
00000020: 3459 adbd 63ba 0fbe b699 3cbd 9285 d1ba
00000030: d164 05be 4768 8fbc fe02 833c 864f 1f3c
00000040: 0f7d 90bd ae26 3dbd ab93 3cbd 51c8 60bc
00000050: 355f d3bd b231 053d 3885 febd 093d a8bd
00000060: a37e 96bc c8ba 49bd 3d87 9cbd 86a2 ffbd
00000070: 5e0d fdbd ffbc 1ebe fbc8 33bd 31ac a4bd
00000080: 3f85 89bd 3e0d 923c aa8c a73d e8d4 f8bc
00000090: 811d 90bd 9d20 b7bd 3a29 38bc 9197 41be
000000a0: 6f72 0dbd 8adc b0bd 34a1 3dbc a7c4 e53b
000000b0: 6a03 b9bb 2aa0 173d 6720 f6bc c6e0 6e3c
000000c0: 8051 f6bd 37b3 12bd a981 4abd e2bc c639
000000d0: 9577 4bbc a804 50bd fded 42bd 32e9 b5bc
000000e0: c814 a7bd 28a8 5fbc 0b79 14be dd32 123c
000000f0: 7407 84bd 8d10 d8bb e962 9d3c 5fc4 093d
00000100: d76d d9bd 83fe 473d 4e86 6dbd eb19 3cbd
00000110: af8f 033d d7aa 17be 8c47 c7bd e701 a7bb
00000120: 37c4 1f3c 23ec aebc b7d9 b7bd 9b13 cbbc
00000130: 2de8 fabc f6e3 2bbd d4ad 423d ef85 e8bc
00000140: 0b43 003d ef78 283d 9438 ad3c 51b9 043d
00000150: 34f7 c9bd fbee 88bd ce19 573d 5f26 06bd
00000160: c67d 263b c3ae abbd c24b e2bc cb37 41bd
00000170: b5e2 cebd 61b8 1bbd 534a 323d 9a1a 10bc
00000180: 994c 6dbd b50e d13b 87bb 6abd 1e07 05bd
00000190: 2e21 5e3b 346a 84bc f7fa 04bd b5de 003c
000001a0: f170 e0bd ea8e fe3c d004 343c 068d 833d
000001b0: 5c37 7fbd 0457 c6bd 6db3 49bd fd9e 8abd
000001c0: 978c 3abc ebf5 243c 0300 0dbe 7358 473d
000001d0: 8807 3fbc 045a 14bd fd01 953c 3b5b a43c
000001e0: ef42 863c 3961 953d 3306 5dbd f3ed 21bd
000001f0: 1766 ac3b cfad 01be 5a75 92bd 3917 a9bc
00000200: c4df efbc 19bf e9bd 4c5a 87bd 9f6f 893d
00000210: f848 d1bd e6a9 8e3b c2de 0ebc e288 143c
00000220: c595 3dbc 49b3 d9bd 3dc5 21bd 7931 d13c
00000230: f1f4 b6bd f504 603c a8fa 14bd 8633 a33c
00000240: a3ad abbd 797d 93bd f269 0fbd 99fc a1bd
00000250: e322 39bd 355b 1abe b297 32bc 78b9 53bd
00000260: 9adb 53bd 0ee9 313c 1959 6239 85fa 3fbd
00000270: 30b7 283c 2c65 97bc 3ae6 c0bd 1276 76be
00000280: 7b69 34bd 70c9 2bbd f048 db3c 608a ce3b
00000290: 0688 2ebd 0295 e5bb 669d 11be 7daf 15ba
000002a0: c4c8 14be 630a 95bd dfa6 7dbd bce9 7c3d
000002b0: e854 4e3d 816f 6fbd 0ea7 38be 48e6 7cbd
000002c0: 0449 f73b 2c57 f3bd cced 9f3d 90e7 00be
000002d0: 5f05 653c 0f4c b1bc 7c51 30be 9c94 c8bd
000002e0: 048a 0f3d 132d a6bd 76e7 51bd 5253 d2bd
000002f0: 41fa 49bd 2526 cfbc c392 c8bd 651b 22be
00000300: 49c4 dcbc e4c9 60bd 4ac6 30bc 0565 6c3c
00000310: 0146 483d 6b8c 31be 60cc ac3c f3ae 6cbc
00000320: 74b3 053d d078 94bd a71d 97bc d344 87bd
00000330: 81d3 443d 847e ecbd c1e7 02be a434 14bd
00000340: 8185 a2bd 5cd2 f8bb ea0b 3dbd c403 2fbb
00000350: 7214 29bd 15c8 3f3d b7a7 8bbd 36e5 d93c
00000360: 2b75 683d 34c7 ab3a b6c8 3dbd 110a 03be
00000370: 0cf8 1abd a724 b3bd c548 6cbc f05c 8abd
00000380: 6d87 8bbc 24ed 76be 752c acbd 738b 3cbc
00000390: 2ec9 94bd 2d2b 92bd bd83 a33c 81d6 a6bd
000003a0: cc3c 7dbd d28d bf3b 6153 abbd db28 b2bd
000003b0: b2b4 d2bd 9471 a6bd 9f9e c3bd 154f 55be
000003c0: a147 203c c55d c7bc 94c6 06be e28c d9bc
000003d0: 52b6 e23c 088a 9cbd 6b8b 36be 4dcc 7c3d
000003e0: e2be eabd c839 f8bc c8b2 1b3e c921 4abd
000003f0: 06a7 2abd 5aaa ec3d a978 5c3c 8b46 673d

fc2.bias f4 [250]
-0.0694425 -0.06314917 -0.061109763 -0.60821825 0.016993055 -0.06743001 0.84568965 -0.067527525
-0.15228638 -0.07477066 0.8830906 -0.011595896 0.012433186 -0.009138128 -0.051014546 -0.06768108
-0.10327799 -0.028831817 -0.11368575 -0.10693986 -0.04812313 -0.020407189 -0.07783247 -0.10917743
-0.05160625 -0.05204155 -0.16907544 -0.00479449 -0.08226304 -0.027395573 -0.07576135 -0.06562929
-0.13789032 -0.120400265 0.46687335 -0.14803375 -0.0340411 -0.078421876 0.74065846 -0.38606608
0.8304896 -0.09923153 -0.098021515 -0.11235677 -0.08239408 -0.15972583 -0.08075398 -0.35480165
-0.005670276 -0.10916335 -0.113614626 -0.039928276 -0.027701916 -0.05090853 -0.061746493 0.006397877
-0.009835896 0.5087598 -0.0740167 -0.0789644 -0.0058593764 -0.117263444 -0.039292738 -0.071212284
-0.118465684 -0.1403535 -0.106616616 -0.013778506 -0.055524174 -0.10368853 0.5893011 -0.064918876
-0.031454336 -0.015691506 0.032119125 -0.0693276 -0.023583366 -0.08803529 -0.08441491 -0.09412901
-0.5349963 -0.076477565 -0.05412882 -0.09205994 -0.060475007 -0.063405514 -0.02219472 -0.22378309
-0.09540839 -0.10450703 -0.048551325 -0.02382579 -0.03284899 1.0919234 -0.04302 -0.18349609
0.013250024 -0.01977573 -0.055613447 0.09567601 -0.10122882 -0.06432478 -0.0061005815 -0.038092636
-0.008527782 -0.042028267 -0.056752454 -0.018323123 -0.079049766 -0.059547313 -0.09910957 -0.0535833
-0.06896104 -0.11828799 0.0077402988 -0.09673918 -0.04109857 -0.01861167 -0.09053547 -0.041148495
0.0024982763 -0.030848954 -0.08082392 -0.077107295 -0.016899353 -0.031322666 -0.120086975 -0.0075624306
-0.08575652 -0.088241674 -0.036319673 -0.07259434 -0.0021872118 -0.074764326 -0.07469938 -0.013446077
-0.06687604 -0.034287337 -0.07696469 -0.012318646 -0.0968273 -0.12022714 -0.14311203 -0.06389079
-0.07979752 -0.039745245 -0.025185712 -0.068971045 -0.09494694 -0.08455308 -0.049312826 -0.09075458
-0.10842487 -0.09248984 0.45298156 -0.067115866 0.84683925 -0.090317965 -0.06585513 -0.022961859
-0.03993713 -0.03491349 -0.014489763 0.01907777 -0.027225059 -0.087933816 -0.008354466 -0.034623295
-0.04880629 -0.07766964 -0.050464988 -0.06417657 -0.08115977 -0.0359616 -0.010342577 -0.028396737
-0.099848695 -0.061398804 -0.06526672 0.22531793 -0.022107009 -0.08470159 -0.04672399 0.8283893
0.47711244 -0.05069535 -0.024013687 -0.05503708 -0.11998339 -0.022453263 0.14496247 4.243883e-05
-0.11644824 1.1897869 -0.06988692 -0.04401709 0.9699465 -0.051486917 -0.06213518 -0.1233379
-0.032502208 -0.015952049 -0.07497331 -0.05790112 -0.038634844 -0.07392264 -0.09138065 -0.06489188
-0.01979827 -0.022004606 -0.035174884 0.5199503 -0.13406873 -0.0074025365 -0.098374195 0.71859777
-0.049439084 -0.15364797 -0.077851735 -0.020132134 0.0063664145 -0.064165905 -0.0847578 -0.050769426
0.015922671 0.015295968 -0.04921291 -0.024491373 -0.0216226 -0.067124754 -0.06786172 1.14224
-0.025920289 -0.056560416 -0.05304194 -0.06107118 -0.58033943 -0.11131755 -0.0486547 -0.090229765
-0.047318257 -0.08835146 -0.04304361 -0.061726898 -0.00033739282 -0.03678003 -0.053054675 -0.050236028
-0.10918955 0.7435371
00000000: df37 8ebd 5a54 81bd 3b4e 7abd 31b4 1bbf
00000010: 0535 8b3c bf18 8abd 1e7f 583f df4b 8abd
00000020: f6f0 1bbe 5c21 99bd 3a12 623f b7fc 3dbc
00000030: 90b4 4b3c 16b8 15bc a1f4 50bd 619c 8abd
00000040: 6983 d3bd b430 ecbc 13d4 e8bd 4903 dbbd
00000050: c21c 45bd fa2c a7bc a166 9fbd 6b98 dfbd
00000060: 1361 53bd 8529 55bd 1d22 2dbe 191b 9dbb
00000070: 8679 a8bd ae6c e0bc c428 9bbd a668 86bd
00000080: 1f33 0dbe 6a94 f6bd 060a ef3e 2996 17be
00000090: ae6e 0bbd a69b a0bd cb9b 3d3f 74aa c5be
000000a0: f79a 543f e739 cbbd 81bf c8bd 4e1b e6bd
000000b0: 3abe a8bd 2b8f 23be 5862 a5bd 90a8 b5be
000000c0: b9cd b9bb 0991 dfbd c9ae e8bd d58b 23bd
000000d0: 21ef e2bc 7685 50bd e4e9 7cbd 48a5 d13b
000000e0: bd26 21bc 153e 023f 1196 97bd 16b8 a1bd
000000f0: 0300 c0bb d127 f0bd 6cf1 20bd bfd7 91bd
00000100: 239e f2bd d4b8 0fbe d059 dabd 3ebf 61bc
00000110: 516d 63bd a75a d4bd 70dc 163f 30f4 84bd
00000120: 43d6 00bd 798b 80bc 588f 033d a1fb 8dbd
00000130: e731 c1bc d94b b4bd b9e1 acbd b6c6 c0bd
00000140: 84f5 08bf 45a0 9cbd 2eb6 5dbd ec89 bcbd
00000150: a4b4 77bd c0da 81bd b4d1 b5bc 6527 65be
00000160: 7965 c3bd c807 d6bd c1dd 46bd 4e2e c3bc
00000170: aa8c 06bd 25c4 8b3f bd35 30bd 66e6 3bbe
00000180: a116 593c b600 a2bc edca 63bd c9f1 c33d
00000190: 0e51 cfbd b6bc 83bd 63e7 c7bb 0607 1cbd
000001a0: 1cb8 0bbc d525 2cbd 4375 68bd 601a 96bc
000001b0: d8e4 a1bd e2e7 73bd f5f9 cabd 2a7a 5bbd
000001c0: 723b 8dbd f940 f2bd 55a2 fd3b 311f c6bd
000001d0: f956 28bd 8077 98bc a96a b9bd 538b 28bd
000001e0: 1fba 233b f2b6 fcbc 0387 a5bd 6eea 9dbd
000001f0: 8370 8abc 324c 00bd 29f0 f5bd 44ce f7bb
00000200: 1da1 afbd 0db8 b4bd f0c3 14bd 57ac 94bd
00000210: 5357 0fbb 0a1e 99bd fdfb 98bd ef4c 5cbc
00000220: 4ef6 88bd e170 0cbd aa9f 9dbd 25d4 49bc
00000230: 644d c6bd a639 f6bd f68b 12be 2dd9 82bd
00000240: e26c a3bd e9cb 22bd 4452 cebc b140 8dbd
00000250: 8b73 c2bd 2a2a adbd 3ffc 49bd 8add b9bd
00000260: dc0d debd 506b bdbd 33ed e73e 0b74 89bd
00000270: 75ca 583f a0f8 b8bd 0edf 86bd 821a bcbc
00000280: 1e95 23bd 7301 0fbd 7966 6dbc fc48 9c3c
00000290: 1607 dfbc a516 b4bd 2ce1 08bc 28d1 0dbd
000002a0: 1be9 47bd 4311 9fbd 60b4 4ebd 016f 83bd
000002b0: 1837 a6bd 784c 13bd e973 29bc 46a0 e8bc
000002c0: 797d ccbd 507d 7bbd 8faa 85bd beb9 663e
000002d0: c219 b5bc 0778 adbd a861 3fbd 5211 543f
000002e0: 1548 f43e eda5 4fbd 5ab8 c4bc 906e 61bd
000002f0: dab9 f5bd e8ef b7bc 0b71 143e 5900 3238
00000300: 6a7c eebd f04a 983f e020 8fbd 444b 34bd
00000310: 6a4e 783f f2e3 52bd 7581 7ebd 9598 fcbd
00000320: 0921 05bd dfad 82bc 9b8b 99bd ba29 6dbd
00000330: 923f 1ebd c164 97bd c725 bbbd 09e6 84bd
00000340: fb2f a2bc 0143 b4bc 8a13 10bd 761b 053f
00000350: 5049 09be fa90 f2bb 6978 c9bd 06f6 373f
00000360: a380 4abd e555 1dbe bb70 9fbd 25ec a4bc
00000370: 5b9d d03b 6a69 83bd 7f95 adbd 9af3 4fbd
00000380: 4370 823c f19b 7a3c 7a93 49bd 22a2 c8bc
00000390: e121 b1bc b478 89bd 16fb 8abd ec34 923f
000003a0: c956 d4bc e5ab 67bd 8142 59bd c625 7abd
000003b0: 2091 14bf 75fa e3bd 274a 47bd 62ca b8bd
000003c0: cad0 41bd 9cf1 b4bd 7f4e 30bd 58d5 7cbd
000003d0: 19e4 b0b9 a8a6 16bd dc4f 59bd 4bc4 4dbd
000003e0: c59e dfbd 7358 3e3f

fc3.weight f4 [1, 250]
0.015003915 -0.027336868 -0.011904482 -0.03304366 0.027189944 0.023624806 0.025315182 0.023822442
-0.002712771 -0.018901443 0.014103525 -0.03379032 -0.012331378 0.015076519 0.0022062273 0.012113077
0.02788581 -0.00549466 0.029406052 0.0039372225 -0.017791336 -0.012795179 0.010321768 -0.056185097
0.021960387 -0.00830637 3.6283203e-05 0.0019936615 -0.0023827872 -0.022268774 -0.021457406 0.013037966
0.0055015045 0.008230554 0.011518795 0.007436847 -0.010548486 -0.027080547 0.02757221 -0.026561799
0.017556388 -0.052533075 -0.023429569 -0.022883357 0.0017521939 0.018363506 0.0129244905 -0.017989773
0.0016956421 0.021901574 0.015909635 -0.014047221 -0.028836403 -0.004344963 -0.011539802 0.030585501
0.024168955 0.019732244 0.00027352266 -0.024626255 0.01048258 -0.028457383 0.015648337 0.023654113
-0.021957858 -0.006006134 0.014777811 0.023059592 -0.022537228 0.012795062 0.014901763 0.009583808
0.028225997 0.004948164 0.010867592 -0.0049845558 -0.008193282 0.0062842034 0.019194227 -0.021011643
-0.019827751 -0.005961094 0.027868232 -0.024500938 -0.0013759261 -0.0014824689 0.0016763231 0.04373116
-0.018532315 -0.023405038 -0.030232318 -0.013317748 -0.0141821215 0.057061702 -0.00614887 -0.053456306
0.012741829 0.015301513 0.0029098606 0.015239856 -0.028886907 -0.0073192897 -0.0077980533 -0.011624499
-0.01786158 0.020899143 -0.019535122 0.022110675 -0.014828726 -0.012137448 -0.002921511 -0.008200749
0.019911721 0.0094682975 0.015480557 0.020434355 -0.02470956 -0.021546118 -0.007870386 -0.009798522
-0.010406968 0.0003343232 -0.008147416 0.026933005 0.015336151 -0.026598355 0.0067448122 0.004391057
0.02696539 -0.029562073 0.02043277 -0.0026835813 0.018702421 -0.0170153 -0.019194946 -0.0028153528
-0.012482857 0.010786762 0.0052853 0.007021976 0.0019975097 -0.027215501 0.018623844 -0.011761074
0.019410687 0.017090298 0.00025586085 0.00080635597 -0.025782747 -0.025149195 0.011760729 -0.014367047
-0.006679166 0.0064632455 0.032916397 -0.014519415 0.012533632 -0.0010092559 -0.0045159482 -0.025815798
0.029808829 -0.028317431 0.017489875 0.061473332 -0.0028721604 0.0106417695 -0.013124372 -0.020865828
0.0009667924 -0.0070852847 0.022671495 -0.014513772 -0.019973112 0.012218683 -0.016295897 -0.017391242
0.0074595506 0.0006170513 0.017350785 0.033785403 -0.017876692 0.0044594486 0.0013957714 0.018420529
0.016802186 0.0010076633 0.025967028 0.02046394 -0.013508748 0.02186015 0.029552424 0.0058092573
0.016890872 0.020610198 -0.014452403 -0.022036955 0.018873332 0.00028947848 0.02935904 -0.00783314
-0.022099374 -0.02270839 0.028331485 0.01601024 -0.0051478036 0.003487249 0.013622228 0.0148580205
-0.029818289 -0.012966377 -0.0025759344 0.012711668 0.04060902 0.011856613 -0.016609533 0.016545752
-0.0024028937 -0.013642633 -0.007980833 -0.012142504 0.02344987 -0.0009857916 0.0022391372 0.0019651824
-0.02695406 0.0037984261 -0.01895597 0.029225653 -0.030701252 -0.0184629 -0.02730429 0.053707484
-0.0008516258 -0.011316755 -0.00050303293 -0.005611661 -0.014566518 -0.0041980944 0.004489152 0.0014389445
0.010088128 0.015881501 -0.010696643 -0.0058761938 0.021617988 -0.004404867 0.028265554 0.026173567
0.019528875 0.012186957
00000000: fbd2 753c 91f1 dfbc 040b 43bc ca58 07bd
00000010: 72bd de3c cf88 c13c c961 cf3c 4827 c33c
00000020: bfc8 31bb 33d7 9abc 7912 673c b867 0abd
00000030: 8c09 4abc 8103 773c 5a96 103b ed75 463c
00000040: c870 e43c 8d0c b4bb f6e4 f03c d103 813b
00000050: 23bf 91bc dfa2 51bc a21c 293c 5822 66bd
00000060: 45e6 b33c 7117 08bc cb2e 1838 17a8 023b
00000070: 8928 1cbb 016d b6bc 71c7 afbc 319d 553c
00000080: f745 b43b 72d9 063c 54b9 3c3c cbb0 f33b
00000090: 8fd3 2cbc 06d8 ddbc 1edf e13c 2198 d9bc
000000a0: 6ad2 8f3c ec2c 57bd 5eef bfbc e175 bbbc
000000b0: dfa9 e53a 106f 963c 3ec1 533c 4a5f 93bc
000000c0: 4f40 de3a ee6a b33c ec54 823c 5126 66bc
000000d0: 523a ecbc 3160 8ebb 7011 3dbc 728e fa3c
000000e0: f9fd c53c 84a5 a13c 9767 8f39 00bd c9bc
000000f0: 21bf 2b3c 751f e9bc f130 803c 45c6 c13c
00000100: f7e0 b3bc 1bcf c4bb a21e 723c 78e7 bc3c
00000110: fe9f b8bc 61a2 513c 8626 743c 6705 1d3c
00000120: 353a e73c 3524 a23b fc0d 323c 7c55 a3bb
00000130: 1e3d 06bc b8eb cd3b 363d 9d3c 9c20 acbc
00000140: cf6d a2bc 4855 c3bb eb4b e43c 31b6 c8bc
00000150: 6b58 b4ba 674f c2ba 12b8 db3a 721f 333d
00000160: 15d1 97bc ecbb bfbc c4a9 f7bc af32 5abc
00000170: 215c 68bc 88b9 693d 767c c9bb 00f5 5abd
00000180: 1bc3 503c 32b3 7a3c 5cb3 3e3b 97b0 793c
00000190: 3ca4 ecbc a7d6 efbb d086 ffbb af74 3ebc
000001a0: 7352 92bc ae34 ab3c 1f08 a0bc 7221 b53c
000001b0: 2ff4 72bc 26dc 46bc d276 3fbb 6f5c 06bc
000001c0: e81d a33c eb20 1b3c 2aa2 7d3c f365 a73c
000001d0: b46b cabc 7c81 b0bc cbf2 00bc fb89 20bc
000001e0: fd81 2abc 1a48 af39 bd7c 05bc 9ba2 dc3c
000001f0: 7b44 7b3c cbe4 d9bc 9603 dd3b dbe2 8f3b
00000200: 86e6 dc3c 292c f2bc a062 a73c 06df 2fbb
00000210: d235 993c ac63 8bbc b83e 9dbc c881 38bb
00000220: e684 4cbc f6ba 303c 4f30 ad3b 9b18 e63b
00000230: a7e8 023b 0bf3 debc 0891 983c 85b1 40bc
00000240: 2903 9f3c f400 8c3c 1025 8639 a261 533a
00000250: 5736 d3bc af05 cebc 13b0 403c c363 6bbc
00000260: e8dc dabb a2c9 d33b 58d3 063d d7e2 6dbc
00000270: dd59 4d3c 0249 84ba 85fa 93bb a77b d3bc
00000280: a531 f43c f5f9 e7bc ed46 8f3c 76cb 7b3d
00000290: db3a 3cbb d15a 2e3c 9b07 57bc d0ee aabc
000002a0: 5770 7d3a ad2b e8bb 92b9 b93c 2ccb 6dbc
000002b0: a79e a3bc df30 483c f97e 85bc 1478 8ebc
000002c0: 3f6f f43b 9dc1 213a 3c23 8e3c 9062 0a3d
000002d0: 2472 92bc 9120 923b 51f2 b63a a6e6 963c
000002e0: bda4 893c 9213 843a ceb8 d43c fea3 a73c
000002f0: cc53 5dbc 0f14 b33c ed17 f23c 955b be3b
00000300: ba5e 8a3c b8d6 a83c c6c9 6cbc d886 b4bc
00000310: 3f9c 9a3c 25c5 9739 5f82 f03c 9256 00bc
00000320: bf09 b5bc f206 babc 6e17 e83c e827 833c
00000330: e8ae a8bb 548a 643b c42f 5f3c 0e6f 733c
00000340: 7c45 f4bc ed70 54bc 02d1 28bb 9a44 503c
00000350: a555 263d 3d42 423c b710 88bc f58a 873c
00000360: de79 1dbb 5a85 5fbc 0ac2 02bc 5af1 46bc
00000370: f119 c03c ad35 81ba 7dbe 123b 4aca 003b
00000380: c3ce dcbc 04ef 783b 8d49 9bbc a36a ef3c
00000390: 3181 fbbc 823f 97bc 3fad dfbc 61fc 5b3d
000003a0: a43f 5fba e969 39bc f8dd 03ba 06e2 b7bb
000003b0: 68a8 6ebc 2b90 89bb bd19 933b f79a bc3a
000003c0: ad48 253c ec19 823c f940 2fbc 168d c0bb
000003d0: 3518 b13c b456 90bb 2a8d e73c f369 d63c
000003e0: 05fb 9f3c cdab 473c
